node {
  name: "global_step/Initializer/zeros"
  op: "Const"
  attr {
    key: "_class"
    value {
      list {
        s: "loc:@global_step"
      }
    }
  }
  attr {
    key: "_output_shapes"
    value {
      list {
        shape {
        }
      }
    }
  }
  attr {
    key: "dtype"
    value {
      type: DT_INT64
    }
  }
  attr {
    key: "value"
    value {
      tensor {
        dtype: DT_INT64
        tensor_shape {
        }
        int64_val: 0
      }
    }
  }
}
node {
  name: "global_step"
  op: "VariableV2"
  attr {
    key: "_class"
    value {
      list {
        s: "loc:@global_step"
      }
    }
  }
  attr {
    key: "_output_shapes"
    value {
      list {
        shape {
        }
      }
    }
  }
  attr {
    key: "container"
    value {
      s: ""
    }
  }
  attr {
    key: "dtype"
    value {
      type: DT_INT64
    }
  }
  attr {
    key: "shape"
    value {
      shape {
      }
    }
  }
  attr {
    key: "shared_name"
    value {
      s: ""
    }
  }
}
node {
  name: "global_step/Assign"
  op: "Assign"
  input: "global_step"
  input: "global_step/Initializer/zeros"
  attr {
    key: "T"
    value {
      type: DT_INT64
    }
  }
  attr {
    key: "_class"
    value {
      list {
        s: "loc:@global_step"
      }
    }
  }
  attr {
    key: "_output_shapes"
    value {
      list {
        shape {
        }
      }
    }
  }
  attr {
    key: "use_locking"
    value {
      b: true
    }
  }
  attr {
    key: "validate_shape"
    value {
      b: true
    }
  }
}
node {
  name: "global_step/read"
  op: "Identity"
  input: "global_step"
  attr {
    key: "T"
    value {
      type: DT_INT64
    }
  }
  attr {
    key: "_class"
    value {
      list {
        s: "loc:@global_step"
      }
    }
  }
  attr {
    key: "_output_shapes"
    value {
      list {
        shape {
        }
      }
    }
  }
}
node {
  name: "DropoutWrapperInit/Const"
  op: "Const"
  attr {
    key: "_output_shapes"
    value {
      list {
        shape {
        }
      }
    }
  }
  attr {
    key: "dtype"
    value {
      type: DT_FLOAT
    }
  }
  attr {
    key: "value"
    value {
      tensor {
        dtype: DT_FLOAT
        tensor_shape {
        }
        float_val: 1.0
      }
    }
  }
}
node {
  name: "DropoutWrapperInit/Const_1"
  op: "Const"
  attr {
    key: "_output_shapes"
    value {
      list {
        shape {
        }
      }
    }
  }
  attr {
    key: "dtype"
    value {
      type: DT_FLOAT
    }
  }
  attr {
    key: "value"
    value {
      tensor {
        dtype: DT_FLOAT
        tensor_shape {
        }
        float_val: 1.0
      }
    }
  }
}
node {
  name: "DropoutWrapperInit/Const_2"
  op: "Const"
  attr {
    key: "_output_shapes"
    value {
      list {
        shape {
        }
      }
    }
  }
  attr {
    key: "dtype"
    value {
      type: DT_FLOAT
    }
  }
  attr {
    key: "value"
    value {
      tensor {
        dtype: DT_FLOAT
        tensor_shape {
        }
        float_val: 1.0
      }
    }
  }
}
node {
  name: "DropoutWrapperInit_1/Const"
  op: "Const"
  attr {
    key: "_output_shapes"
    value {
      list {
        shape {
        }
      }
    }
  }
  attr {
    key: "dtype"
    value {
      type: DT_FLOAT
    }
  }
  attr {
    key: "value"
    value {
      tensor {
        dtype: DT_FLOAT
        tensor_shape {
        }
        float_val: 1.0
      }
    }
  }
}
node {
  name: "DropoutWrapperInit_1/Const_1"
  op: "Const"
  attr {
    key: "_output_shapes"
    value {
      list {
        shape {
        }
      }
    }
  }
  attr {
    key: "dtype"
    value {
      type: DT_FLOAT
    }
  }
  attr {
    key: "value"
    value {
      tensor {
        dtype: DT_FLOAT
        tensor_shape {
        }
        float_val: 1.0
      }
    }
  }
}
node {
  name: "DropoutWrapperInit_1/Const_2"
  op: "Const"
  attr {
    key: "_output_shapes"
    value {
      list {
        shape {
        }
      }
    }
  }
  attr {
    key: "dtype"
    value {
      type: DT_FLOAT
    }
  }
  attr {
    key: "value"
    value {
      tensor {
        dtype: DT_FLOAT
        tensor_shape {
        }
        float_val: 1.0
      }
    }
  }
}
node {
  name: "ToFloat"
  op: "Cast"
  input: "global_step/read"
  attr {
    key: "DstT"
    value {
      type: DT_FLOAT
    }
  }
  attr {
    key: "SrcT"
    value {
      type: DT_INT64
    }
  }
  attr {
    key: "Truncate"
    value {
      b: false
    }
  }
  attr {
    key: "_output_shapes"
    value {
      list {
        shape {
        }
      }
    }
  }
}
node {
  name: "ToFloat_1/x"
  op: "Const"
  attr {
    key: "_output_shapes"
    value {
      list {
        shape {
        }
      }
    }
  }
  attr {
    key: "dtype"
    value {
      type: DT_INT32
    }
  }
  attr {
    key: "value"
    value {
      tensor {
        dtype: DT_INT32
        tensor_shape {
        }
        int_val: 1000
      }
    }
  }
}
node {
  name: "ToFloat_1"
  op: "Cast"
  input: "ToFloat_1/x"
  attr {
    key: "DstT"
    value {
      type: DT_FLOAT
    }
  }
  attr {
    key: "SrcT"
    value {
      type: DT_INT32
    }
  }
  attr {
    key: "Truncate"
    value {
      b: false
    }
  }
  attr {
    key: "_output_shapes"
    value {
      list {
        shape {
        }
      }
    }
  }
}
node {
  name: "truediv"
  op: "RealDiv"
  input: "ToFloat"
  input: "ToFloat_1"
  attr {
    key: "T"
    value {
      type: DT_FLOAT
    }
  }
  attr {
    key: "_output_shapes"
    value {
      list {
        shape {
        }
      }
    }
  }
}
node {
  name: "Exp"
  op: "Exp"
  input: "truediv"
  attr {
    key: "T"
    value {
      type: DT_FLOAT
    }
  }
  attr {
    key: "_output_shapes"
    value {
      list {
        shape {
        }
      }
    }
  }
}
node {
  name: "add"
  op: "AddV2"
  input: "ToFloat_1"
  input: "Exp"
  attr {
    key: "T"
    value {
      type: DT_FLOAT
    }
  }
  attr {
    key: "_output_shapes"
    value {
      list {
        shape {
        }
      }
    }
  }
}
node {
  name: "truediv_1"
  op: "RealDiv"
  input: "ToFloat_1"
  input: "add"
  attr {
    key: "T"
    value {
      type: DT_FLOAT
    }
  }
  attr {
    key: "_output_shapes"
    value {
      list {
        shape {
        }
      }
    }
  }
}
node {
  name: "sub/x"
  op: "Const"
  attr {
    key: "_output_shapes"
    value {
      list {
        shape {
        }
      }
    }
  }
  attr {
    key: "dtype"
    value {
      type: DT_FLOAT
    }
  }
  attr {
    key: "value"
    value {
      tensor {
        dtype: DT_FLOAT
        tensor_shape {
        }
        float_val: 1.0
      }
    }
  }
}
node {
  name: "sub"
  op: "Sub"
  input: "sub/x"
  input: "truediv_1"
  attr {
    key: "T"
    value {
      type: DT_FLOAT
    }
  }
  attr {
    key: "_output_shapes"
    value {
      list {
        shape {
        }
      }
    }
  }
}
node {
  name: "sampling_probability/tags"
  op: "Const"
  attr {
    key: "_output_shapes"
    value {
      list {
        shape {
        }
      }
    }
  }
  attr {
    key: "dtype"
    value {
      type: DT_STRING
    }
  }
  attr {
    key: "value"
    value {
      tensor {
        dtype: DT_STRING
        tensor_shape {
        }
        string_val: "sampling_probability"
      }
    }
  }
}
node {
  name: "sampling_probability"
  op: "ScalarSummary"
  input: "sampling_probability/tags"
  input: "sub"
  attr {
    key: "T"
    value {
      type: DT_FLOAT
    }
  }
  attr {
    key: "_output_shapes"
    value {
      list {
        shape {
        }
      }
    }
  }
}
node {
  name: "DropoutWrapperInit_2/Const"
  op: "Const"
  attr {
    key: "_output_shapes"
    value {
      list {
        shape {
        }
      }
    }
  }
  attr {
    key: "dtype"
    value {
      type: DT_FLOAT
    }
  }
  attr {
    key: "value"
    value {
      tensor {
        dtype: DT_FLOAT
        tensor_shape {
        }
        float_val: 1.0
      }
    }
  }
}
node {
  name: "DropoutWrapperInit_2/Const_1"
  op: "Const"
  attr {
    key: "_output_shapes"
    value {
      list {
        shape {
        }
      }
    }
  }
  attr {
    key: "dtype"
    value {
      type: DT_FLOAT
    }
  }
  attr {
    key: "value"
    value {
      tensor {
        dtype: DT_FLOAT
        tensor_shape {
        }
        float_val: 1.0
      }
    }
  }
}
node {
  name: "DropoutWrapperInit_2/Const_2"
  op: "Const"
  attr {
    key: "_output_shapes"
    value {
      list {
        shape {
        }
      }
    }
  }
  attr {
    key: "dtype"
    value {
      type: DT_FLOAT
    }
  }
  attr {
    key: "value"
    value {
      tensor {
        dtype: DT_FLOAT
        tensor_shape {
        }
        float_val: 1.0
      }
    }
  }
}
node {
  name: "DropoutWrapperInit_3/Const"
  op: "Const"
  attr {
    key: "_output_shapes"
    value {
      list {
        shape {
        }
      }
    }
  }
  attr {
    key: "dtype"
    value {
      type: DT_FLOAT
    }
  }
  attr {
    key: "value"
    value {
      tensor {
        dtype: DT_FLOAT
        tensor_shape {
        }
        float_val: 1.0
      }
    }
  }
}
node {
  name: "DropoutWrapperInit_3/Const_1"
  op: "Const"
  attr {
    key: "_output_shapes"
    value {
      list {
        shape {
        }
      }
    }
  }
  attr {
    key: "dtype"
    value {
      type: DT_FLOAT
    }
  }
  attr {
    key: "value"
    value {
      tensor {
        dtype: DT_FLOAT
        tensor_shape {
        }
        float_val: 1.0
      }
    }
  }
}
node {
  name: "DropoutWrapperInit_3/Const_2"
  op: "Const"
  attr {
    key: "_output_shapes"
    value {
      list {
        shape {
        }
      }
    }
  }
  attr {
    key: "dtype"
    value {
      type: DT_FLOAT
    }
  }
  attr {
    key: "value"
    value {
      tensor {
        dtype: DT_FLOAT
        tensor_shape {
        }
        float_val: 1.0
      }
    }
  }
}
node {
  name: "list_files/file_pattern"
  op: "Const"
  attr {
    key: "_output_shapes"
    value {
      list {
        shape {
        }
      }
    }
  }
  attr {
    key: "dtype"
    value {
      type: DT_STRING
    }
  }
  attr {
    key: "value"
    value {
      tensor {
        dtype: DT_STRING
        tensor_shape {
        }
        string_val: "tmp/notesequences.tfrecord"
      }
    }
  }
}
node {
  name: "list_files/MatchingFiles"
  op: "MatchingFiles"
  input: "list_files/file_pattern"
  attr {
    key: "_output_shapes"
    value {
      list {
        shape {
          dim {
            size: -1
          }
        }
      }
    }
  }
}
node {
  name: "list_files/Shape"
  op: "Shape"
  input: "list_files/MatchingFiles"
  attr {
    key: "T"
    value {
      type: DT_STRING
    }
  }
  attr {
    key: "_output_shapes"
    value {
      list {
        shape {
          dim {
            size: 1
          }
        }
      }
    }
  }
  attr {
    key: "out_type"
    value {
      type: DT_INT32
    }
  }
}
node {
  name: "list_files/strided_slice/stack"
  op: "Const"
  attr {
    key: "_output_shapes"
    value {
      list {
        shape {
          dim {
            size: 1
          }
        }
      }
    }
  }
  attr {
    key: "dtype"
    value {
      type: DT_INT32
    }
  }
  attr {
    key: "value"
    value {
      tensor {
        dtype: DT_INT32
        tensor_shape {
          dim {
            size: 1
          }
        }
        int_val: 0
      }
    }
  }
}
node {
  name: "list_files/strided_slice/stack_1"
  op: "Const"
  attr {
    key: "_output_shapes"
    value {
      list {
        shape {
          dim {
            size: 1
          }
        }
      }
    }
  }
  attr {
    key: "dtype"
    value {
      type: DT_INT32
    }
  }
  attr {
    key: "value"
    value {
      tensor {
        dtype: DT_INT32
        tensor_shape {
          dim {
            size: 1
          }
        }
        int_val: 1
      }
    }
  }
}
node {
  name: "list_files/strided_slice/stack_2"
  op: "Const"
  attr {
    key: "_output_shapes"
    value {
      list {
        shape {
          dim {
            size: 1
          }
        }
      }
    }
  }
  attr {
    key: "dtype"
    value {
      type: DT_INT32
    }
  }
  attr {
    key: "value"
    value {
      tensor {
        dtype: DT_INT32
        tensor_shape {
          dim {
            size: 1
          }
        }
        int_val: 1
      }
    }
  }
}
node {
  name: "list_files/strided_slice"
  op: "StridedSlice"
  input: "list_files/Shape"
  input: "list_files/strided_slice/stack"
  input: "list_files/strided_slice/stack_1"
  input: "list_files/strided_slice/stack_2"
  attr {
    key: "Index"
    value {
      type: DT_INT32
    }
  }
  attr {
    key: "T"
    value {
      type: DT_INT32
    }
  }
  attr {
    key: "_output_shapes"
    value {
      list {
        shape {
        }
      }
    }
  }
  attr {
    key: "begin_mask"
    value {
      i: 0
    }
  }
  attr {
    key: "ellipsis_mask"
    value {
      i: 0
    }
  }
  attr {
    key: "end_mask"
    value {
      i: 0
    }
  }
  attr {
    key: "new_axis_mask"
    value {
      i: 0
    }
  }
  attr {
    key: "shrink_axis_mask"
    value {
      i: 1
    }
  }
}
node {
  name: "list_files/match_not_empty/y"
  op: "Const"
  attr {
    key: "_output_shapes"
    value {
      list {
        shape {
        }
      }
    }
  }
  attr {
    key: "dtype"
    value {
      type: DT_INT32
    }
  }
  attr {
    key: "value"
    value {
      tensor {
        dtype: DT_INT32
        tensor_shape {
        }
        int_val: 0
      }
    }
  }
}
node {
  name: "list_files/match_not_empty"
  op: "Greater"
  input: "list_files/strided_slice"
  input: "list_files/match_not_empty/y"
  attr {
    key: "T"
    value {
      type: DT_INT32
    }
  }
  attr {
    key: "_output_shapes"
    value {
      list {
        shape {
        }
      }
    }
  }
}
node {
  name: "list_files/ReduceJoin/Const"
  op: "Const"
  attr {
    key: "_output_shapes"
    value {
      list {
        shape {
          dim {
          }
        }
      }
    }
  }
  attr {
    key: "dtype"
    value {
      type: DT_INT32
    }
  }
  attr {
    key: "value"
    value {
      tensor {
        dtype: DT_INT32
        tensor_shape {
          dim {
          }
        }
      }
    }
  }
}
node {
  name: "list_files/ReduceJoin/ReduceJoin"
  op: "ReduceJoin"
  input: "list_files/file_pattern"
  input: "list_files/ReduceJoin/Const"
  attr {
    key: "_output_shapes"
    value {
      list {
        shape {
        }
      }
    }
  }
  attr {
    key: "keep_dims"
    value {
      b: false
    }
  }
  attr {
    key: "separator"
    value {
      s: ", "
    }
  }
}
node {
  name: "list_files/message/x"
  op: "Const"
  attr {
    key: "_output_shapes"
    value {
      list {
        shape {
        }
      }
    }
  }
  attr {
    key: "dtype"
    value {
      type: DT_STRING
    }
  }
  attr {
    key: "value"
    value {
      tensor {
        dtype: DT_STRING
        tensor_shape {
        }
        string_val: "No files matched pattern: "
      }
    }
  }
}
node {
  name: "list_files/message"
  op: "Add"
  input: "list_files/message/x"
  input: "list_files/ReduceJoin/ReduceJoin"
  attr {
    key: "T"
    value {
      type: DT_STRING
    }
  }
  attr {
    key: "_output_shapes"
    value {
      list {
        shape {
        }
      }
    }
  }
}
node {
  name: "list_files/assert_not_empty/Assert"
  op: "Assert"
  input: "list_files/match_not_empty"
  input: "list_files/message"
  attr {
    key: "T"
    value {
      list {
        type: DT_STRING
      }
    }
  }
  attr {
    key: "summarize"
    value {
      i: 1
    }
  }
}
node {
  name: "list_files/Identity"
  op: "Identity"
  input: "list_files/MatchingFiles"
  input: "^list_files/assert_not_empty/Assert"
  attr {
    key: "T"
    value {
      type: DT_STRING
    }
  }
  attr {
    key: "_output_shapes"
    value {
      list {
        shape {
          dim {
            size: -1
          }
        }
      }
    }
  }
}
node {
  name: "list_files/TensorSliceDataset"
  op: "TensorSliceDataset"
  input: "list_files/Identity"
  attr {
    key: "Toutput_types"
    value {
      list {
        type: DT_STRING
      }
    }
  }
  attr {
    key: "_output_shapes"
    value {
      list {
        shape {
        }
      }
    }
  }
  attr {
    key: "is_files"
    value {
      b: true
    }
  }
  attr {
    key: "metadata"
    value {
      s: ""
    }
  }
  attr {
    key: "output_shapes"
    value {
      list {
        shape {
        }
      }
    }
  }
  experimental_type {
    type_id: TFT_PRODUCT
    args {
      type_id: TFT_DATASET
      args {
        type_id: TFT_PRODUCT
        args {
          type_id: TFT_TENSOR
          args {
            type_id: TFT_STRING
          }
        }
      }
    }
  }
}
node {
  name: "list_files/Shape_1"
  op: "Shape"
  input: "list_files/Identity"
  attr {
    key: "T"
    value {
      type: DT_STRING
    }
  }
  attr {
    key: "_output_shapes"
    value {
      list {
        shape {
          dim {
            size: 1
          }
        }
      }
    }
  }
  attr {
    key: "out_type"
    value {
      type: DT_INT64
    }
  }
}
node {
  name: "list_files/strided_slice_1/stack"
  op: "Const"
  attr {
    key: "_output_shapes"
    value {
      list {
        shape {
          dim {
            size: 1
          }
        }
      }
    }
  }
  attr {
    key: "dtype"
    value {
      type: DT_INT32
    }
  }
  attr {
    key: "value"
    value {
      tensor {
        dtype: DT_INT32
        tensor_shape {
          dim {
            size: 1
          }
        }
        int_val: 0
      }
    }
  }
}
node {
  name: "list_files/strided_slice_1/stack_1"
  op: "Const"
  attr {
    key: "_output_shapes"
    value {
      list {
        shape {
          dim {
            size: 1
          }
        }
      }
    }
  }
  attr {
    key: "dtype"
    value {
      type: DT_INT32
    }
  }
  attr {
    key: "value"
    value {
      tensor {
        dtype: DT_INT32
        tensor_shape {
          dim {
            size: 1
          }
        }
        int_val: 1
      }
    }
  }
}
node {
  name: "list_files/strided_slice_1/stack_2"
  op: "Const"
  attr {
    key: "_output_shapes"
    value {
      list {
        shape {
          dim {
            size: 1
          }
        }
      }
    }
  }
  attr {
    key: "dtype"
    value {
      type: DT_INT32
    }
  }
  attr {
    key: "value"
    value {
      tensor {
        dtype: DT_INT32
        tensor_shape {
          dim {
            size: 1
          }
        }
        int_val: 1
      }
    }
  }
}
node {
  name: "list_files/strided_slice_1"
  op: "StridedSlice"
  input: "list_files/Shape_1"
  input: "list_files/strided_slice_1/stack"
  input: "list_files/strided_slice_1/stack_1"
  input: "list_files/strided_slice_1/stack_2"
  attr {
    key: "Index"
    value {
      type: DT_INT32
    }
  }
  attr {
    key: "T"
    value {
      type: DT_INT64
    }
  }
  attr {
    key: "_output_shapes"
    value {
      list {
        shape {
        }
      }
    }
  }
  attr {
    key: "begin_mask"
    value {
      i: 0
    }
  }
  attr {
    key: "ellipsis_mask"
    value {
      i: 0
    }
  }
  attr {
    key: "end_mask"
    value {
      i: 0
    }
  }
  attr {
    key: "new_axis_mask"
    value {
      i: 0
    }
  }
  attr {
    key: "shrink_axis_mask"
    value {
      i: 1
    }
  }
}
node {
  name: "list_files/Maximum/y"
  op: "Const"
  attr {
    key: "_output_shapes"
    value {
      list {
        shape {
        }
      }
    }
  }
  attr {
    key: "dtype"
    value {
      type: DT_INT64
    }
  }
  attr {
    key: "value"
    value {
      tensor {
        dtype: DT_INT64
        tensor_shape {
        }
        int64_val: 1
      }
    }
  }
}
node {
  name: "list_files/Maximum"
  op: "Maximum"
  input: "list_files/strided_slice_1"
  input: "list_files/Maximum/y"
  attr {
    key: "T"
    value {
      type: DT_INT64
    }
  }
  attr {
    key: "_output_shapes"
    value {
      list {
        shape {
        }
      }
    }
  }
}
node {
  name: "list_files/seed"
  op: "Const"
  attr {
    key: "_output_shapes"
    value {
      list {
        shape {
        }
      }
    }
  }
  attr {
    key: "dtype"
    value {
      type: DT_INT64
    }
  }
  attr {
    key: "value"
    value {
      tensor {
        dtype: DT_INT64
        tensor_shape {
        }
        int64_val: 0
      }
    }
  }
}
node {
  name: "list_files/seed2"
  op: "Const"
  attr {
    key: "_output_shapes"
    value {
      list {
        shape {
        }
      }
    }
  }
  attr {
    key: "dtype"
    value {
      type: DT_INT64
    }
  }
  attr {
    key: "value"
    value {
      tensor {
        dtype: DT_INT64
        tensor_shape {
        }
        int64_val: 0
      }
    }
  }
}
node {
  name: "list_files/ShuffleDataset"
  op: "ShuffleDataset"
  input: "list_files/TensorSliceDataset"
  input: "list_files/Maximum"
  input: "list_files/seed"
  input: "list_files/seed2"
  attr {
    key: "_output_shapes"
    value {
      list {
        shape {
        }
      }
    }
  }
  attr {
    key: "metadata"
    value {
      s: ""
    }
  }
  attr {
    key: "output_shapes"
    value {
      list {
        shape {
        }
      }
    }
  }
  attr {
    key: "output_types"
    value {
      list {
        type: DT_STRING
      }
    }
  }
  attr {
    key: "reshuffle_each_iteration"
    value {
      b: true
    }
  }
  experimental_type {
    type_id: TFT_PRODUCT
    args {
      type_id: TFT_DATASET
      args {
        type_id: TFT_PRODUCT
        args {
          type_id: TFT_TENSOR
          args {
            type_id: TFT_STRING
          }
        }
      }
    }
  }
}
node {
  name: "cycle_length"
  op: "Const"
  attr {
    key: "_output_shapes"
    value {
      list {
        shape {
        }
      }
    }
  }
  attr {
    key: "dtype"
    value {
      type: DT_INT64
    }
  }
  attr {
    key: "value"
    value {
      tensor {
        dtype: DT_INT64
        tensor_shape {
        }
        int64_val: -1
      }
    }
  }
}
node {
  name: "block_length"
  op: "Const"
  attr {
    key: "_output_shapes"
    value {
      list {
        shape {
        }
      }
    }
  }
  attr {
    key: "dtype"
    value {
      type: DT_INT64
    }
  }
  attr {
    key: "value"
    value {
      tensor {
        dtype: DT_INT64
        tensor_shape {
        }
        int64_val: 1
      }
    }
  }
}
node {
  name: "buffer_output_elements"
  op: "Const"
  attr {
    key: "_output_shapes"
    value {
      list {
        shape {
        }
      }
    }
  }
  attr {
    key: "dtype"
    value {
      type: DT_INT64
    }
  }
  attr {
    key: "value"
    value {
      tensor {
        dtype: DT_INT64
        tensor_shape {
        }
        int64_val: -1
      }
    }
  }
}
node {
  name: "prefetch_input_elements"
  op: "Const"
  attr {
    key: "_output_shapes"
    value {
      list {
        shape {
        }
      }
    }
  }
  attr {
    key: "dtype"
    value {
      type: DT_INT64
    }
  }
  attr {
    key: "value"
    value {
      tensor {
        dtype: DT_INT64
        tensor_shape {
        }
        int64_val: -1
      }
    }
  }
}
node {
  name: "num_parallel_calls"
  op: "Const"
  attr {
    key: "_output_shapes"
    value {
      list {
        shape {
        }
      }
    }
  }
  attr {
    key: "dtype"
    value {
      type: DT_INT64
    }
  }
  attr {
    key: "value"
    value {
      tensor {
        dtype: DT_INT64
        tensor_shape {
        }
        int64_val: -1
      }
    }
  }
}
node {
  name: "ParallelInterleaveDatasetV4"
  op: "ParallelInterleaveDatasetV4"
  input: "list_files/ShuffleDataset"
  input: "cycle_length"
  input: "block_length"
  input: "buffer_output_elements"
  input: "prefetch_input_elements"
  input: "num_parallel_calls"
  attr {
    key: "Targuments"
    value {
      list {
      }
    }
  }
  attr {
    key: "_output_shapes"
    value {
      list {
        shape {
        }
      }
    }
  }
  attr {
    key: "deterministic"
    value {
      s: "default"
    }
  }
  attr {
    key: "f"
    value {
      func {
        name: "__inference_Dataset_interleave_classabc.ABCMeta_76"
        attr {
          key: "_tf_data_function"
          value {
            b: true
          }
        }
      }
    }
  }
  attr {
    key: "metadata"
    value {
      s: ""
    }
  }
  attr {
    key: "output_shapes"
    value {
      list {
        shape {
        }
      }
    }
  }
  attr {
    key: "output_types"
    value {
      list {
        type: DT_STRING
      }
    }
  }
  experimental_type {
    type_id: TFT_PRODUCT
    args {
      type_id: TFT_DATASET
      args {
        type_id: TFT_PRODUCT
        args {
          type_id: TFT_TENSOR
          args {
            type_id: TFT_STRING
          }
        }
      }
    }
  }
}
node {
  name: "OptionsDataset"
  op: "OptionsDataset"
  input: "ParallelInterleaveDatasetV4"
  attr {
    key: "_class"
    value {
      list {
        s: "loc:@ParallelInterleaveDatasetV4"
      }
    }
  }
  attr {
    key: "_output_shapes"
    value {
      list {
        shape {
        }
      }
    }
  }
  attr {
    key: "metadata"
    value {
      s: ""
    }
  }
  attr {
    key: "output_shapes"
    value {
      list {
        shape {
        }
      }
    }
  }
  attr {
    key: "output_types"
    value {
      list {
        type: DT_STRING
      }
    }
  }
  attr {
    key: "serialized_options"
    value {
      s: "\010\000\022\000\032\000*\000:\000"
    }
  }
  experimental_type {
    type_id: TFT_PRODUCT
    args {
      type_id: TFT_DATASET
      args {
        type_id: TFT_PRODUCT
        args {
          type_id: TFT_TENSOR
          args {
            type_id: TFT_STRING
          }
        }
      }
    }
  }
}
node {
  name: "num_parallel_calls_1"
  op: "Const"
  attr {
    key: "_output_shapes"
    value {
      list {
        shape {
        }
      }
    }
  }
  attr {
    key: "dtype"
    value {
      type: DT_INT64
    }
  }
  attr {
    key: "value"
    value {
      tensor {
        dtype: DT_INT64
        tensor_shape {
        }
        int64_val: -1
      }
    }
  }
}
node {
  name: "ParallelMapDatasetV2"
  op: "ParallelMapDatasetV2"
  input: "OptionsDataset"
  input: "num_parallel_calls_1"
  attr {
    key: "Targuments"
    value {
      list {
      }
    }
  }
  attr {
    key: "_output_shapes"
    value {
      list {
        shape {
        }
      }
    }
  }
  attr {
    key: "deterministic"
    value {
      s: "default"
    }
  }
  attr {
    key: "f"
    value {
      func {
        name: "__inference_Dataset_map_NoteSequenceAugmenter.tf_augment_88"
        attr {
          key: "_tf_data_function"
          value {
            b: true
          }
        }
      }
    }
  }
  attr {
    key: "metadata"
    value {
      s: ""
    }
  }
  attr {
    key: "output_shapes"
    value {
      list {
        shape {
        }
      }
    }
  }
  attr {
    key: "output_types"
    value {
      list {
        type: DT_STRING
      }
    }
  }
  attr {
    key: "preserve_cardinality"
    value {
      b: false
    }
  }
  attr {
    key: "use_inter_op_parallelism"
    value {
      b: true
    }
  }
  experimental_type {
    type_id: TFT_PRODUCT
    args {
      type_id: TFT_DATASET
      args {
        type_id: TFT_PRODUCT
        args {
          type_id: TFT_TENSOR
          args {
            type_id: TFT_STRING
          }
        }
      }
    }
  }
}
node {
  name: "num_parallel_calls_2"
  op: "Const"
  attr {
    key: "_output_shapes"
    value {
      list {
        shape {
        }
      }
    }
  }
  attr {
    key: "dtype"
    value {
      type: DT_INT64
    }
  }
  attr {
    key: "value"
    value {
      tensor {
        dtype: DT_INT64
        tensor_shape {
        }
        int64_val: -1
      }
    }
  }
}
node {
  name: "ParallelMapDatasetV2_1"
  op: "ParallelMapDatasetV2"
  input: "ParallelMapDatasetV2"
  input: "num_parallel_calls_2"
  attr {
    key: "Targuments"
    value {
      list {
      }
    }
  }
  attr {
    key: "_output_shapes"
    value {
      list {
        shape {
        }
      }
    }
  }
  attr {
    key: "deterministic"
    value {
      s: "default"
    }
  }
  attr {
    key: "f"
    value {
      func {
        name: "__inference_Dataset_map_wrapper_101"
        attr {
          key: "_tf_data_function"
          value {
            b: true
          }
        }
      }
    }
  }
  attr {
    key: "metadata"
    value {
      s: ""
    }
  }
  attr {
    key: "output_shapes"
    value {
      list {
        shape {
          dim {
            size: -1
          }
          dim {
            size: -1
          }
          dim {
            size: 90
          }
        }
        shape {
          dim {
            size: -1
          }
          dim {
            size: -1
          }
          dim {
            size: 90
          }
        }
        shape {
          dim {
            size: -1
          }
          dim {
            size: -1
          }
          dim {
          }
        }
        shape {
          dim {
            size: -1
          }
        }
      }
    }
  }
  attr {
    key: "output_types"
    value {
      list {
        type: DT_BOOL
        type: DT_BOOL
        type: DT_BOOL
        type: DT_INT32
      }
    }
  }
  attr {
    key: "preserve_cardinality"
    value {
      b: false
    }
  }
  attr {
    key: "use_inter_op_parallelism"
    value {
      b: true
    }
  }
  experimental_type {
    type_id: TFT_PRODUCT
    args {
      type_id: TFT_DATASET
      args {
        type_id: TFT_PRODUCT
        args {
          type_id: TFT_TENSOR
          args {
            type_id: TFT_BOOL
          }
        }
        args {
          type_id: TFT_TENSOR
          args {
            type_id: TFT_BOOL
          }
        }
        args {
          type_id: TFT_TENSOR
          args {
            type_id: TFT_BOOL
          }
        }
        args {
          type_id: TFT_TENSOR
          args {
            type_id: TFT_INT32
          }
        }
      }
    }
  }
}
node {
  name: "MapDataset"
  op: "MapDataset"
  input: "ParallelMapDatasetV2_1"
  attr {
    key: "Targuments"
    value {
      list {
      }
    }
  }
  attr {
    key: "_output_shapes"
    value {
      list {
        shape {
        }
      }
    }
  }
  attr {
    key: "f"
    value {
      func {
        name: "__inference_Dataset_map_normalize_113"
        attr {
          key: "_tf_data_function"
          value {
            b: true
          }
        }
      }
    }
  }
  attr {
    key: "metadata"
    value {
      s: ""
    }
  }
  attr {
    key: "output_shapes"
    value {
      list {
        shape {
          dim {
            size: -1
          }
          dim {
            size: -1
          }
          dim {
            size: 90
          }
        }
        shape {
          dim {
            size: -1
          }
          dim {
            size: -1
          }
          dim {
            size: 90
          }
        }
        shape {
          dim {
            size: -1
          }
          dim {
            size: -1
          }
          dim {
          }
        }
        shape {
          dim {
            size: -1
          }
        }
      }
    }
  }
  attr {
    key: "output_types"
    value {
      list {
        type: DT_BOOL
        type: DT_BOOL
        type: DT_BOOL
        type: DT_INT32
      }
    }
  }
  attr {
    key: "preserve_cardinality"
    value {
      b: false
    }
  }
  attr {
    key: "use_inter_op_parallelism"
    value {
      b: true
    }
  }
  experimental_type {
    type_id: TFT_PRODUCT
    args {
      type_id: TFT_DATASET
      args {
        type_id: TFT_PRODUCT
        args {
          type_id: TFT_TENSOR
          args {
            type_id: TFT_BOOL
          }
        }
        args {
          type_id: TFT_TENSOR
          args {
            type_id: TFT_BOOL
          }
        }
        args {
          type_id: TFT_TENSOR
          args {
            type_id: TFT_BOOL
          }
        }
        args {
          type_id: TFT_TENSOR
          args {
            type_id: TFT_INT32
          }
        }
      }
    }
  }
}
node {
  name: "UnbatchDataset"
  op: "UnbatchDataset"
  input: "MapDataset"
  attr {
    key: "_output_shapes"
    value {
      list {
        shape {
        }
      }
    }
  }
  attr {
    key: "metadata"
    value {
      s: ""
    }
  }
  attr {
    key: "output_shapes"
    value {
      list {
        shape {
          dim {
            size: -1
          }
          dim {
            size: 90
          }
        }
        shape {
          dim {
            size: -1
          }
          dim {
            size: 90
          }
        }
        shape {
          dim {
            size: -1
          }
          dim {
          }
        }
        shape {
        }
      }
    }
  }
  attr {
    key: "output_types"
    value {
      list {
        type: DT_BOOL
        type: DT_BOOL
        type: DT_BOOL
        type: DT_INT32
      }
    }
  }
  experimental_type {
    type_id: TFT_PRODUCT
    args {
      type_id: TFT_DATASET
      args {
        type_id: TFT_PRODUCT
        args {
          type_id: TFT_TENSOR
          args {
            type_id: TFT_BOOL
          }
        }
        args {
          type_id: TFT_TENSOR
          args {
            type_id: TFT_BOOL
          }
        }
        args {
          type_id: TFT_TENSOR
          args {
            type_id: TFT_BOOL
          }
        }
        args {
          type_id: TFT_TENSOR
          args {
            type_id: TFT_INT32
          }
        }
      }
    }
  }
}
node {
  name: "num_parallel_calls_3"
  op: "Const"
  attr {
    key: "_output_shapes"
    value {
      list {
        shape {
        }
      }
    }
  }
  attr {
    key: "dtype"
    value {
      type: DT_INT64
    }
  }
  attr {
    key: "value"
    value {
      tensor {
        dtype: DT_INT64
        tensor_shape {
        }
        int64_val: -1
      }
    }
  }
}
node {
  name: "ParallelMapDatasetV2_2"
  op: "ParallelMapDatasetV2"
  input: "UnbatchDataset"
  input: "num_parallel_calls_3"
  attr {
    key: "Targuments"
    value {
      list {
      }
    }
  }
  attr {
    key: "_output_shapes"
    value {
      list {
        shape {
        }
      }
    }
  }
  attr {
    key: "deterministic"
    value {
      s: "default"
    }
  }
  attr {
    key: "f"
    value {
      func {
        name: "__inference_Dataset_map__remove_pad_fn_140"
        attr {
          key: "_tf_data_function"
          value {
            b: true
          }
        }
      }
    }
  }
  attr {
    key: "metadata"
    value {
      s: ""
    }
  }
  attr {
    key: "output_shapes"
    value {
      list {
        shape {
          dim {
            size: -1
          }
          dim {
            size: 90
          }
        }
        shape {
          dim {
            size: -1
          }
          dim {
            size: 90
          }
        }
        shape {
          dim {
            size: -1
          }
          dim {
          }
        }
        shape {
        }
      }
    }
  }
  attr {
    key: "output_types"
    value {
      list {
        type: DT_BOOL
        type: DT_BOOL
        type: DT_BOOL
        type: DT_INT32
      }
    }
  }
  attr {
    key: "preserve_cardinality"
    value {
      b: false
    }
  }
  attr {
    key: "use_inter_op_parallelism"
    value {
      b: true
    }
  }
  experimental_type {
    type_id: TFT_PRODUCT
    args {
      type_id: TFT_DATASET
      args {
        type_id: TFT_PRODUCT
        args {
          type_id: TFT_TENSOR
          args {
            type_id: TFT_BOOL
          }
        }
        args {
          type_id: TFT_TENSOR
          args {
            type_id: TFT_BOOL
          }
        }
        args {
          type_id: TFT_TENSOR
          args {
            type_id: TFT_BOOL
          }
        }
        args {
          type_id: TFT_TENSOR
          args {
            type_id: TFT_INT32
          }
        }
      }
    }
  }
}
node {
  name: "filename"
  op: "Const"
  attr {
    key: "_output_shapes"
    value {
      list {
        shape {
        }
      }
    }
  }
  attr {
    key: "dtype"
    value {
      type: DT_STRING
    }
  }
  attr {
    key: "value"
    value {
      tensor {
        dtype: DT_STRING
        tensor_shape {
        }
        string_val: ""
      }
    }
  }
}
node {
  name: "CacheDataset"
  op: "CacheDataset"
  input: "ParallelMapDatasetV2_2"
  input: "filename"
  attr {
    key: "_output_shapes"
    value {
      list {
        shape {
        }
      }
    }
  }
  attr {
    key: "metadata"
    value {
      s: ""
    }
  }
  attr {
    key: "output_shapes"
    value {
      list {
        shape {
          dim {
            size: -1
          }
          dim {
            size: 90
          }
        }
        shape {
          dim {
            size: -1
          }
          dim {
            size: 90
          }
        }
        shape {
          dim {
            size: -1
          }
          dim {
          }
        }
        shape {
        }
      }
    }
  }
  attr {
    key: "output_types"
    value {
      list {
        type: DT_BOOL
        type: DT_BOOL
        type: DT_BOOL
        type: DT_INT32
      }
    }
  }
  experimental_type {
    type_id: TFT_PRODUCT
    args {
      type_id: TFT_DATASET
      args {
        type_id: TFT_PRODUCT
        args {
          type_id: TFT_TENSOR
          args {
            type_id: TFT_BOOL
          }
        }
        args {
          type_id: TFT_TENSOR
          args {
            type_id: TFT_BOOL
          }
        }
        args {
          type_id: TFT_TENSOR
          args {
            type_id: TFT_BOOL
          }
        }
        args {
          type_id: TFT_TENSOR
          args {
            type_id: TFT_INT32
          }
        }
      }
    }
  }
}
node {
  name: "buffer_size"
  op: "Const"
  attr {
    key: "_output_shapes"
    value {
      list {
        shape {
        }
      }
    }
  }
  attr {
    key: "dtype"
    value {
      type: DT_INT64
    }
  }
  attr {
    key: "value"
    value {
      tensor {
        dtype: DT_INT64
        tensor_shape {
        }
        int64_val: 320
      }
    }
  }
}
node {
  name: "seed"
  op: "Const"
  attr {
    key: "_output_shapes"
    value {
      list {
        shape {
        }
      }
    }
  }
  attr {
    key: "dtype"
    value {
      type: DT_INT64
    }
  }
  attr {
    key: "value"
    value {
      tensor {
        dtype: DT_INT64
        tensor_shape {
        }
        int64_val: 0
      }
    }
  }
}
node {
  name: "seed2"
  op: "Const"
  attr {
    key: "_output_shapes"
    value {
      list {
        shape {
        }
      }
    }
  }
  attr {
    key: "dtype"
    value {
      type: DT_INT64
    }
  }
  attr {
    key: "value"
    value {
      tensor {
        dtype: DT_INT64
        tensor_shape {
        }
        int64_val: 0
      }
    }
  }
}
node {
  name: "ShuffleDataset"
  op: "ShuffleDataset"
  input: "CacheDataset"
  input: "buffer_size"
  input: "seed"
  input: "seed2"
  attr {
    key: "_output_shapes"
    value {
      list {
        shape {
        }
      }
    }
  }
  attr {
    key: "metadata"
    value {
      s: ""
    }
  }
  attr {
    key: "output_shapes"
    value {
      list {
        shape {
          dim {
            size: -1
          }
          dim {
            size: 90
          }
        }
        shape {
          dim {
            size: -1
          }
          dim {
            size: 90
          }
        }
        shape {
          dim {
            size: -1
          }
          dim {
          }
        }
        shape {
        }
      }
    }
  }
  attr {
    key: "output_types"
    value {
      list {
        type: DT_BOOL
        type: DT_BOOL
        type: DT_BOOL
        type: DT_INT32
      }
    }
  }
  attr {
    key: "reshuffle_each_iteration"
    value {
      b: true
    }
  }
  experimental_type {
    type_id: TFT_PRODUCT
    args {
      type_id: TFT_DATASET
      args {
        type_id: TFT_PRODUCT
        args {
          type_id: TFT_TENSOR
          args {
            type_id: TFT_BOOL
          }
        }
        args {
          type_id: TFT_TENSOR
          args {
            type_id: TFT_BOOL
          }
        }
        args {
          type_id: TFT_TENSOR
          args {
            type_id: TFT_BOOL
          }
        }
        args {
          type_id: TFT_TENSOR
          args {
            type_id: TFT_INT32
          }
        }
      }
    }
  }
}
node {
  name: "count"
  op: "Const"
  attr {
    key: "_output_shapes"
    value {
      list {
        shape {
        }
      }
    }
  }
  attr {
    key: "dtype"
    value {
      type: DT_INT64
    }
  }
  attr {
    key: "value"
    value {
      tensor {
        dtype: DT_INT64
        tensor_shape {
        }
        int64_val: -1
      }
    }
  }
}
node {
  name: "RepeatDataset"
  op: "RepeatDataset"
  input: "ShuffleDataset"
  input: "count"
  attr {
    key: "_output_shapes"
    value {
      list {
        shape {
        }
      }
    }
  }
  attr {
    key: "metadata"
    value {
      s: ""
    }
  }
  attr {
    key: "output_shapes"
    value {
      list {
        shape {
          dim {
            size: -1
          }
          dim {
            size: 90
          }
        }
        shape {
          dim {
            size: -1
          }
          dim {
            size: 90
          }
        }
        shape {
          dim {
            size: -1
          }
          dim {
          }
        }
        shape {
        }
      }
    }
  }
  attr {
    key: "output_types"
    value {
      list {
        type: DT_BOOL
        type: DT_BOOL
        type: DT_BOOL
        type: DT_INT32
      }
    }
  }
  experimental_type {
    type_id: TFT_PRODUCT
    args {
      type_id: TFT_DATASET
      args {
        type_id: TFT_PRODUCT
        args {
          type_id: TFT_TENSOR
          args {
            type_id: TFT_BOOL
          }
        }
        args {
          type_id: TFT_TENSOR
          args {
            type_id: TFT_BOOL
          }
        }
        args {
          type_id: TFT_TENSOR
          args {
            type_id: TFT_BOOL
          }
        }
        args {
          type_id: TFT_TENSOR
          args {
            type_id: TFT_INT32
          }
        }
      }
    }
  }
}
node {
  name: "batch_size"
  op: "Const"
  attr {
    key: "_output_shapes"
    value {
      list {
        shape {
        }
      }
    }
  }
  attr {
    key: "dtype"
    value {
      type: DT_INT64
    }
  }
  attr {
    key: "value"
    value {
      tensor {
        dtype: DT_INT64
        tensor_shape {
        }
        int64_val: 32
      }
    }
  }
}
node {
  name: "Const"
  op: "Const"
  attr {
    key: "_output_shapes"
    value {
      list {
        shape {
          dim {
            size: 2
          }
        }
      }
    }
  }
  attr {
    key: "dtype"
    value {
      type: DT_INT64
    }
  }
  attr {
    key: "value"
    value {
      tensor {
        dtype: DT_INT64
        tensor_shape {
          dim {
            size: 2
          }
        }
        tensor_content: "\377\377\377\377\377\377\377\377Z\000\000\000\000\000\000\000"
      }
    }
  }
}
node {
  name: "Const_1"
  op: "Const"
  attr {
    key: "_output_shapes"
    value {
      list {
        shape {
          dim {
            size: 2
          }
        }
      }
    }
  }
  attr {
    key: "dtype"
    value {
      type: DT_INT64
    }
  }
  attr {
    key: "value"
    value {
      tensor {
        dtype: DT_INT64
        tensor_shape {
          dim {
            size: 2
          }
        }
        tensor_content: "\377\377\377\377\377\377\377\377Z\000\000\000\000\000\000\000"
      }
    }
  }
}
node {
  name: "Const_2"
  op: "Const"
  attr {
    key: "_output_shapes"
    value {
      list {
        shape {
          dim {
            size: 2
          }
        }
      }
    }
  }
  attr {
    key: "dtype"
    value {
      type: DT_INT64
    }
  }
  attr {
    key: "value"
    value {
      tensor {
        dtype: DT_INT64
        tensor_shape {
          dim {
            size: 2
          }
        }
        tensor_content: "\377\377\377\377\377\377\377\377\000\000\000\000\000\000\000\000"
      }
    }
  }
}
node {
  name: "Const_3"
  op: "Const"
  attr {
    key: "_output_shapes"
    value {
      list {
        shape {
          dim {
          }
        }
      }
    }
  }
  attr {
    key: "dtype"
    value {
      type: DT_INT64
    }
  }
  attr {
    key: "value"
    value {
      tensor {
        dtype: DT_INT64
        tensor_shape {
          dim {
          }
        }
      }
    }
  }
}
node {
  name: "padding_value"
  op: "Const"
  attr {
    key: "_output_shapes"
    value {
      list {
        shape {
        }
      }
    }
  }
  attr {
    key: "dtype"
    value {
      type: DT_BOOL
    }
  }
  attr {
    key: "value"
    value {
      tensor {
        dtype: DT_BOOL
        tensor_shape {
        }
        bool_val: false
      }
    }
  }
}
node {
  name: "padding_value_1"
  op: "Const"
  attr {
    key: "_output_shapes"
    value {
      list {
        shape {
        }
      }
    }
  }
  attr {
    key: "dtype"
    value {
      type: DT_BOOL
    }
  }
  attr {
    key: "value"
    value {
      tensor {
        dtype: DT_BOOL
        tensor_shape {
        }
        bool_val: false
      }
    }
  }
}
node {
  name: "padding_value_2"
  op: "Const"
  attr {
    key: "_output_shapes"
    value {
      list {
        shape {
        }
      }
    }
  }
  attr {
    key: "dtype"
    value {
      type: DT_BOOL
    }
  }
  attr {
    key: "value"
    value {
      tensor {
        dtype: DT_BOOL
        tensor_shape {
        }
        bool_val: false
      }
    }
  }
}
node {
  name: "padding_value_3"
  op: "Const"
  attr {
    key: "_output_shapes"
    value {
      list {
        shape {
        }
      }
    }
  }
  attr {
    key: "dtype"
    value {
      type: DT_INT32
    }
  }
  attr {
    key: "value"
    value {
      tensor {
        dtype: DT_INT32
        tensor_shape {
        }
        int_val: 0
      }
    }
  }
}
node {
  name: "drop_remainder"
  op: "Const"
  attr {
    key: "_output_shapes"
    value {
      list {
        shape {
        }
      }
    }
  }
  attr {
    key: "dtype"
    value {
      type: DT_BOOL
    }
  }
  attr {
    key: "value"
    value {
      tensor {
        dtype: DT_BOOL
        tensor_shape {
        }
        bool_val: true
      }
    }
  }
}
node {
  name: "PaddedBatchDatasetV2"
  op: "PaddedBatchDatasetV2"
  input: "RepeatDataset"
  input: "batch_size"
  input: "Const"
  input: "Const_1"
  input: "Const_2"
  input: "Const_3"
  input: "padding_value"
  input: "padding_value_1"
  input: "padding_value_2"
  input: "padding_value_3"
  input: "drop_remainder"
  attr {
    key: "N"
    value {
      i: 4
    }
  }
  attr {
    key: "Toutput_types"
    value {
      list {
        type: DT_BOOL
        type: DT_BOOL
        type: DT_BOOL
        type: DT_INT32
      }
    }
  }
  attr {
    key: "_output_shapes"
    value {
      list {
        shape {
        }
      }
    }
  }
  attr {
    key: "metadata"
    value {
      s: ""
    }
  }
  attr {
    key: "output_shapes"
    value {
      list {
        shape {
          dim {
            size: 32
          }
          dim {
            size: -1
          }
          dim {
            size: 90
          }
        }
        shape {
          dim {
            size: 32
          }
          dim {
            size: -1
          }
          dim {
            size: 90
          }
        }
        shape {
          dim {
            size: 32
          }
          dim {
            size: -1
          }
          dim {
          }
        }
        shape {
          dim {
            size: 32
          }
        }
      }
    }
  }
  attr {
    key: "parallel_copy"
    value {
      b: false
    }
  }
  experimental_type {
    type_id: TFT_PRODUCT
    args {
      type_id: TFT_DATASET
      args {
        type_id: TFT_PRODUCT
        args {
          type_id: TFT_TENSOR
          args {
            type_id: TFT_BOOL
          }
        }
        args {
          type_id: TFT_TENSOR
          args {
            type_id: TFT_BOOL
          }
        }
        args {
          type_id: TFT_TENSOR
          args {
            type_id: TFT_BOOL
          }
        }
        args {
          type_id: TFT_TENSOR
          args {
            type_id: TFT_INT32
          }
        }
      }
    }
  }
}
node {
  name: "buffer_size_1"
  op: "Const"
  attr {
    key: "_output_shapes"
    value {
      list {
        shape {
        }
      }
    }
  }
  attr {
    key: "dtype"
    value {
      type: DT_INT64
    }
  }
  attr {
    key: "value"
    value {
      tensor {
        dtype: DT_INT64
        tensor_shape {
        }
        int64_val: -1
      }
    }
  }
}
node {
  name: "PrefetchDataset"
  op: "PrefetchDataset"
  input: "PaddedBatchDatasetV2"
  input: "buffer_size_1"
  attr {
    key: "_class"
    value {
      list {
        s: "loc:@PaddedBatchDatasetV2"
      }
    }
  }
  attr {
    key: "_output_shapes"
    value {
      list {
        shape {
        }
      }
    }
  }
  attr {
    key: "buffer_size_min"
    value {
      i: 0
    }
  }
  attr {
    key: "legacy_autotune"
    value {
      b: true
    }
  }
  attr {
    key: "metadata"
    value {
      s: ""
    }
  }
  attr {
    key: "output_shapes"
    value {
      list {
        shape {
          dim {
            size: 32
          }
          dim {
            size: -1
          }
          dim {
            size: 90
          }
        }
        shape {
          dim {
            size: 32
          }
          dim {
            size: -1
          }
          dim {
            size: 90
          }
        }
        shape {
          dim {
            size: 32
          }
          dim {
            size: -1
          }
          dim {
          }
        }
        shape {
          dim {
            size: 32
          }
        }
      }
    }
  }
  attr {
    key: "output_types"
    value {
      list {
        type: DT_BOOL
        type: DT_BOOL
        type: DT_BOOL
        type: DT_INT32
      }
    }
  }
  attr {
    key: "slack_period"
    value {
      i: 0
    }
  }
  experimental_type {
    type_id: TFT_PRODUCT
    args {
      type_id: TFT_DATASET
      args {
        type_id: TFT_PRODUCT
        args {
          type_id: TFT_TENSOR
          args {
            type_id: TFT_BOOL
          }
        }
        args {
          type_id: TFT_TENSOR
          args {
            type_id: TFT_BOOL
          }
        }
        args {
          type_id: TFT_TENSOR
          args {
            type_id: TFT_BOOL
          }
        }
        args {
          type_id: TFT_TENSOR
          args {
            type_id: TFT_INT32
          }
        }
      }
    }
  }
}
node {
  name: "OneShotIterator"
  op: "OneShotIterator"
  attr {
    key: "_class"
    value {
      list {
        s: "loc:@PaddedBatchDatasetV2"
      }
    }
  }
  attr {
    key: "_output_shapes"
    value {
      list {
        shape {
        }
      }
    }
  }
  attr {
    key: "container"
    value {
      s: ""
    }
  }
  attr {
    key: "dataset_factory"
    value {
      func {
        name: "_make_dataset_X5aC2J4u50I"
      }
    }
  }
  attr {
    key: "output_shapes"
    value {
      list {
        shape {
          dim {
            size: 32
          }
          dim {
            size: -1
          }
          dim {
            size: 90
          }
        }
        shape {
          dim {
            size: 32
          }
          dim {
            size: -1
          }
          dim {
            size: 90
          }
        }
        shape {
          dim {
            size: 32
          }
          dim {
            size: -1
          }
          dim {
          }
        }
        shape {
          dim {
            size: 32
          }
        }
      }
    }
  }
  attr {
    key: "output_types"
    value {
      list {
        type: DT_BOOL
        type: DT_BOOL
        type: DT_BOOL
        type: DT_INT32
      }
    }
  }
  attr {
    key: "shared_name"
    value {
      s: ""
    }
  }
}
node {
  name: "IteratorToStringHandle"
  op: "IteratorToStringHandle"
  input: "OneShotIterator"
  attr {
    key: "_class"
    value {
      list {
        s: "loc:@PaddedBatchDatasetV2"
      }
    }
  }
  attr {
    key: "_output_shapes"
    value {
      list {
        shape {
        }
      }
    }
  }
}
node {
  name: "IteratorGetNext"
  op: "IteratorGetNext"
  input: "OneShotIterator"
  attr {
    key: "_class"
    value {
      list {
        s: "loc:@PaddedBatchDatasetV2"
      }
    }
  }
  attr {
    key: "_output_shapes"
    value {
      list {
        shape {
          dim {
            size: 32
          }
          dim {
            size: -1
          }
          dim {
            size: 90
          }
        }
        shape {
          dim {
            size: 32
          }
          dim {
            size: -1
          }
          dim {
            size: 90
          }
        }
        shape {
          dim {
            size: 32
          }
          dim {
            size: -1
          }
          dim {
          }
        }
        shape {
          dim {
            size: 32
          }
        }
      }
    }
  }
  attr {
    key: "output_shapes"
    value {
      list {
        shape {
          dim {
            size: 32
          }
          dim {
            size: -1
          }
          dim {
            size: 90
          }
        }
        shape {
          dim {
            size: 32
          }
          dim {
            size: -1
          }
          dim {
            size: 90
          }
        }
        shape {
          dim {
            size: 32
          }
          dim {
            size: -1
          }
          dim {
          }
        }
        shape {
          dim {
            size: 32
          }
        }
      }
    }
  }
  attr {
    key: "output_types"
    value {
      list {
        type: DT_BOOL
        type: DT_BOOL
        type: DT_BOOL
        type: DT_INT32
      }
    }
  }
}
node {
  name: "ToFloat_2"
  op: "Cast"
  input: "IteratorGetNext"
  attr {
    key: "DstT"
    value {
      type: DT_FLOAT
    }
  }
  attr {
    key: "SrcT"
    value {
      type: DT_BOOL
    }
  }
  attr {
    key: "Truncate"
    value {
      b: false
    }
  }
  attr {
    key: "_output_shapes"
    value {
      list {
        shape {
          dim {
            size: 32
          }
          dim {
            size: -1
          }
          dim {
            size: 90
          }
        }
      }
    }
  }
}
node {
  name: "ToFloat_3"
  op: "Cast"
  input: "IteratorGetNext:1"
  attr {
    key: "DstT"
    value {
      type: DT_FLOAT
    }
  }
  attr {
    key: "SrcT"
    value {
      type: DT_BOOL
    }
  }
  attr {
    key: "Truncate"
    value {
      b: false
    }
  }
  attr {
    key: "_output_shapes"
    value {
      list {
        shape {
          dim {
            size: 32
          }
          dim {
            size: -1
          }
          dim {
            size: 90
          }
        }
      }
    }
  }
}
node {
  name: "Shape"
  op: "Shape"
  input: "ToFloat_3"
  attr {
    key: "T"
    value {
      type: DT_FLOAT
    }
  }
  attr {
    key: "_output_shapes"
    value {
      list {
        shape {
          dim {
            size: 3
          }
        }
      }
    }
  }
  attr {
    key: "out_type"
    value {
      type: DT_INT32
    }
  }
}
node {
  name: "strided_slice/stack"
  op: "Const"
  attr {
    key: "_output_shapes"
    value {
      list {
        shape {
          dim {
            size: 1
          }
        }
      }
    }
  }
  attr {
    key: "dtype"
    value {
      type: DT_INT32
    }
  }
  attr {
    key: "value"
    value {
      tensor {
        dtype: DT_INT32
        tensor_shape {
          dim {
            size: 1
          }
        }
        int_val: 1
      }
    }
  }
}
node {
  name: "strided_slice/stack_1"
  op: "Const"
  attr {
    key: "_output_shapes"
    value {
      list {
        shape {
          dim {
            size: 1
          }
        }
      }
    }
  }
  attr {
    key: "dtype"
    value {
      type: DT_INT32
    }
  }
  attr {
    key: "value"
    value {
      tensor {
        dtype: DT_INT32
        tensor_shape {
          dim {
            size: 1
          }
        }
        int_val: 2
      }
    }
  }
}
node {
  name: "strided_slice/stack_2"
  op: "Const"
  attr {
    key: "_output_shapes"
    value {
      list {
        shape {
          dim {
            size: 1
          }
        }
      }
    }
  }
  attr {
    key: "dtype"
    value {
      type: DT_INT32
    }
  }
  attr {
    key: "value"
    value {
      tensor {
        dtype: DT_INT32
        tensor_shape {
          dim {
            size: 1
          }
        }
        int_val: 1
      }
    }
  }
}
node {
  name: "strided_slice"
  op: "StridedSlice"
  input: "Shape"
  input: "strided_slice/stack"
  input: "strided_slice/stack_1"
  input: "strided_slice/stack_2"
  attr {
    key: "Index"
    value {
      type: DT_INT32
    }
  }
  attr {
    key: "T"
    value {
      type: DT_INT32
    }
  }
  attr {
    key: "_output_shapes"
    value {
      list {
        shape {
        }
      }
    }
  }
  attr {
    key: "begin_mask"
    value {
      i: 0
    }
  }
  attr {
    key: "ellipsis_mask"
    value {
      i: 0
    }
  }
  attr {
    key: "end_mask"
    value {
      i: 0
    }
  }
  attr {
    key: "new_axis_mask"
    value {
      i: 0
    }
  }
  attr {
    key: "shrink_axis_mask"
    value {
      i: 1
    }
  }
}
node {
  name: "Minimum/y"
  op: "Const"
  attr {
    key: "_output_shapes"
    value {
      list {
        shape {
        }
      }
    }
  }
  attr {
    key: "dtype"
    value {
      type: DT_INT32
    }
  }
  attr {
    key: "value"
    value {
      tensor {
        dtype: DT_INT32
        tensor_shape {
        }
        int_val: 32
      }
    }
  }
}
node {
  name: "Minimum"
  op: "Minimum"
  input: "strided_slice"
  input: "Minimum/y"
  attr {
    key: "T"
    value {
      type: DT_INT32
    }
  }
  attr {
    key: "_output_shapes"
    value {
      list {
        shape {
        }
      }
    }
  }
}
node {
  name: "Const_4"
  op: "Const"
  attr {
    key: "_output_shapes"
    value {
      list {
        shape {
        }
      }
    }
  }
  attr {
    key: "dtype"
    value {
      type: DT_INT32
    }
  }
  attr {
    key: "value"
    value {
      tensor {
        dtype: DT_INT32
        tensor_shape {
        }
        int_val: 0
      }
    }
  }
}
node {
  name: "Const_5"
  op: "Const"
  attr {
    key: "_output_shapes"
    value {
      list {
        shape {
        }
      }
    }
  }
  attr {
    key: "dtype"
    value {
      type: DT_INT32
    }
  }
  attr {
    key: "value"
    value {
      tensor {
        dtype: DT_INT32
        tensor_shape {
        }
        int_val: 1
      }
    }
  }
}
node {
  name: "strided_slice_1/stack/0"
  op: "Const"
  attr {
    key: "_output_shapes"
    value {
      list {
        shape {
        }
      }
    }
  }
  attr {
    key: "dtype"
    value {
      type: DT_INT32
    }
  }
  attr {
    key: "value"
    value {
      tensor {
        dtype: DT_INT32
        tensor_shape {
        }
        int_val: 0
      }
    }
  }
}
node {
  name: "strided_slice_1/stack"
  op: "Pack"
  input: "strided_slice_1/stack/0"
  input: "Const_4"
  attr {
    key: "N"
    value {
      i: 2
    }
  }
  attr {
    key: "T"
    value {
      type: DT_INT32
    }
  }
  attr {
    key: "_output_shapes"
    value {
      list {
        shape {
          dim {
            size: 2
          }
        }
      }
    }
  }
  attr {
    key: "axis"
    value {
      i: 0
    }
  }
}
node {
  name: "strided_slice_1/stack_1/0"
  op: "Const"
  attr {
    key: "_output_shapes"
    value {
      list {
        shape {
        }
      }
    }
  }
  attr {
    key: "dtype"
    value {
      type: DT_INT32
    }
  }
  attr {
    key: "value"
    value {
      tensor {
        dtype: DT_INT32
        tensor_shape {
        }
        int_val: 0
      }
    }
  }
}
node {
  name: "strided_slice_1/stack_1"
  op: "Pack"
  input: "strided_slice_1/stack_1/0"
  input: "Minimum"
  attr {
    key: "N"
    value {
      i: 2
    }
  }
  attr {
    key: "T"
    value {
      type: DT_INT32
    }
  }
  attr {
    key: "_output_shapes"
    value {
      list {
        shape {
          dim {
            size: 2
          }
        }
      }
    }
  }
  attr {
    key: "axis"
    value {
      i: 0
    }
  }
}
node {
  name: "strided_slice_1/stack_2/0"
  op: "Const"
  attr {
    key: "_output_shapes"
    value {
      list {
        shape {
        }
      }
    }
  }
  attr {
    key: "dtype"
    value {
      type: DT_INT32
    }
  }
  attr {
    key: "value"
    value {
      tensor {
        dtype: DT_INT32
        tensor_shape {
        }
        int_val: 1
      }
    }
  }
}
node {
  name: "strided_slice_1/stack_2"
  op: "Pack"
  input: "strided_slice_1/stack_2/0"
  input: "Const_5"
  attr {
    key: "N"
    value {
      i: 2
    }
  }
  attr {
    key: "T"
    value {
      type: DT_INT32
    }
  }
  attr {
    key: "_output_shapes"
    value {
      list {
        shape {
          dim {
            size: 2
          }
        }
      }
    }
  }
  attr {
    key: "axis"
    value {
      i: 0
    }
  }
}
node {
  name: "strided_slice_1"
  op: "StridedSlice"
  input: "ToFloat_2"
  input: "strided_slice_1/stack"
  input: "strided_slice_1/stack_1"
  input: "strided_slice_1/stack_2"
  attr {
    key: "Index"
    value {
      type: DT_INT32
    }
  }
  attr {
    key: "T"
    value {
      type: DT_FLOAT
    }
  }
  attr {
    key: "_output_shapes"
    value {
      list {
        shape {
          dim {
            size: 32
          }
          dim {
            size: -1
          }
          dim {
            size: 90
          }
        }
      }
    }
  }
  attr {
    key: "begin_mask"
    value {
      i: 3
    }
  }
  attr {
    key: "ellipsis_mask"
    value {
      i: 0
    }
  }
  attr {
    key: "end_mask"
    value {
      i: 1
    }
  }
  attr {
    key: "new_axis_mask"
    value {
      i: 0
    }
  }
  attr {
    key: "shrink_axis_mask"
    value {
      i: 0
    }
  }
}
node {
  name: "Const_6"
  op: "Const"
  attr {
    key: "_output_shapes"
    value {
      list {
        shape {
        }
      }
    }
  }
  attr {
    key: "dtype"
    value {
      type: DT_INT32
    }
  }
  attr {
    key: "value"
    value {
      tensor {
        dtype: DT_INT32
        tensor_shape {
        }
        int_val: 0
      }
    }
  }
}
node {
  name: "Const_7"
  op: "Const"
  attr {
    key: "_output_shapes"
    value {
      list {
        shape {
        }
      }
    }
  }
  attr {
    key: "dtype"
    value {
      type: DT_INT32
    }
  }
  attr {
    key: "value"
    value {
      tensor {
        dtype: DT_INT32
        tensor_shape {
        }
        int_val: 1
      }
    }
  }
}
node {
  name: "strided_slice_2/stack/0"
  op: "Const"
  attr {
    key: "_output_shapes"
    value {
      list {
        shape {
        }
      }
    }
  }
  attr {
    key: "dtype"
    value {
      type: DT_INT32
    }
  }
  attr {
    key: "value"
    value {
      tensor {
        dtype: DT_INT32
        tensor_shape {
        }
        int_val: 0
      }
    }
  }
}
node {
  name: "strided_slice_2/stack"
  op: "Pack"
  input: "strided_slice_2/stack/0"
  input: "Const_6"
  attr {
    key: "N"
    value {
      i: 2
    }
  }
  attr {
    key: "T"
    value {
      type: DT_INT32
    }
  }
  attr {
    key: "_output_shapes"
    value {
      list {
        shape {
          dim {
            size: 2
          }
        }
      }
    }
  }
  attr {
    key: "axis"
    value {
      i: 0
    }
  }
}
node {
  name: "strided_slice_2/stack_1/0"
  op: "Const"
  attr {
    key: "_output_shapes"
    value {
      list {
        shape {
        }
      }
    }
  }
  attr {
    key: "dtype"
    value {
      type: DT_INT32
    }
  }
  attr {
    key: "value"
    value {
      tensor {
        dtype: DT_INT32
        tensor_shape {
        }
        int_val: 0
      }
    }
  }
}
node {
  name: "strided_slice_2/stack_1"
  op: "Pack"
  input: "strided_slice_2/stack_1/0"
  input: "Minimum"
  attr {
    key: "N"
    value {
      i: 2
    }
  }
  attr {
    key: "T"
    value {
      type: DT_INT32
    }
  }
  attr {
    key: "_output_shapes"
    value {
      list {
        shape {
          dim {
            size: 2
          }
        }
      }
    }
  }
  attr {
    key: "axis"
    value {
      i: 0
    }
  }
}
node {
  name: "strided_slice_2/stack_2/0"
  op: "Const"
  attr {
    key: "_output_shapes"
    value {
      list {
        shape {
        }
      }
    }
  }
  attr {
    key: "dtype"
    value {
      type: DT_INT32
    }
  }
  attr {
    key: "value"
    value {
      tensor {
        dtype: DT_INT32
        tensor_shape {
        }
        int_val: 1
      }
    }
  }
}
node {
  name: "strided_slice_2/stack_2"
  op: "Pack"
  input: "strided_slice_2/stack_2/0"
  input: "Const_7"
  attr {
    key: "N"
    value {
      i: 2
    }
  }
  attr {
    key: "T"
    value {
      type: DT_INT32
    }
  }
  attr {
    key: "_output_shapes"
    value {
      list {
        shape {
          dim {
            size: 2
          }
        }
      }
    }
  }
  attr {
    key: "axis"
    value {
      i: 0
    }
  }
}
node {
  name: "strided_slice_2"
  op: "StridedSlice"
  input: "ToFloat_3"
  input: "strided_slice_2/stack"
  input: "strided_slice_2/stack_1"
  input: "strided_slice_2/stack_2"
  attr {
    key: "Index"
    value {
      type: DT_INT32
    }
  }
  attr {
    key: "T"
    value {
      type: DT_FLOAT
    }
  }
  attr {
    key: "_output_shapes"
    value {
      list {
        shape {
          dim {
            size: 32
          }
          dim {
            size: -1
          }
          dim {
            size: 90
          }
        }
      }
    }
  }
  attr {
    key: "begin_mask"
    value {
      i: 3
    }
  }
  attr {
    key: "ellipsis_mask"
    value {
      i: 0
    }
  }
  attr {
    key: "end_mask"
    value {
      i: 1
    }
  }
  attr {
    key: "new_axis_mask"
    value {
      i: 0
    }
  }
  attr {
    key: "shrink_axis_mask"
    value {
      i: 0
    }
  }
}
node {
  name: "sub_1/y"
  op: "Const"
  attr {
    key: "_output_shapes"
    value {
      list {
        shape {
        }
      }
    }
  }
  attr {
    key: "dtype"
    value {
      type: DT_INT32
    }
  }
  attr {
    key: "value"
    value {
      tensor {
        dtype: DT_INT32
        tensor_shape {
        }
        int_val: 1
      }
    }
  }
}
node {
  name: "sub_1"
  op: "Sub"
  input: "Minimum"
  input: "sub_1/y"
  attr {
    key: "T"
    value {
      type: DT_INT32
    }
  }
  attr {
    key: "_output_shapes"
    value {
      list {
        shape {
        }
      }
    }
  }
}
node {
  name: "Const_8"
  op: "Const"
  attr {
    key: "_output_shapes"
    value {
      list {
        shape {
        }
      }
    }
  }
  attr {
    key: "dtype"
    value {
      type: DT_INT32
    }
  }
  attr {
    key: "value"
    value {
      tensor {
        dtype: DT_INT32
        tensor_shape {
        }
        int_val: 0
      }
    }
  }
}
node {
  name: "Const_9"
  op: "Const"
  attr {
    key: "_output_shapes"
    value {
      list {
        shape {
        }
      }
    }
  }
  attr {
    key: "dtype"
    value {
      type: DT_INT32
    }
  }
  attr {
    key: "value"
    value {
      tensor {
        dtype: DT_INT32
        tensor_shape {
        }
        int_val: 1
      }
    }
  }
}
node {
  name: "strided_slice_3/stack/0"
  op: "Const"
  attr {
    key: "_output_shapes"
    value {
      list {
        shape {
        }
      }
    }
  }
  attr {
    key: "dtype"
    value {
      type: DT_INT32
    }
  }
  attr {
    key: "value"
    value {
      tensor {
        dtype: DT_INT32
        tensor_shape {
        }
        int_val: 0
      }
    }
  }
}
node {
  name: "strided_slice_3/stack"
  op: "Pack"
  input: "strided_slice_3/stack/0"
  input: "Const_8"
  attr {
    key: "N"
    value {
      i: 2
    }
  }
  attr {
    key: "T"
    value {
      type: DT_INT32
    }
  }
  attr {
    key: "_output_shapes"
    value {
      list {
        shape {
          dim {
            size: 2
          }
        }
      }
    }
  }
  attr {
    key: "axis"
    value {
      i: 0
    }
  }
}
node {
  name: "strided_slice_3/stack_1/0"
  op: "Const"
  attr {
    key: "_output_shapes"
    value {
      list {
        shape {
        }
      }
    }
  }
  attr {
    key: "dtype"
    value {
      type: DT_INT32
    }
  }
  attr {
    key: "value"
    value {
      tensor {
        dtype: DT_INT32
        tensor_shape {
        }
        int_val: 0
      }
    }
  }
}
node {
  name: "strided_slice_3/stack_1"
  op: "Pack"
  input: "strided_slice_3/stack_1/0"
  input: "sub_1"
  attr {
    key: "N"
    value {
      i: 2
    }
  }
  attr {
    key: "T"
    value {
      type: DT_INT32
    }
  }
  attr {
    key: "_output_shapes"
    value {
      list {
        shape {
          dim {
            size: 2
          }
        }
      }
    }
  }
  attr {
    key: "axis"
    value {
      i: 0
    }
  }
}
node {
  name: "strided_slice_3/stack_2/0"
  op: "Const"
  attr {
    key: "_output_shapes"
    value {
      list {
        shape {
        }
      }
    }
  }
  attr {
    key: "dtype"
    value {
      type: DT_INT32
    }
  }
  attr {
    key: "value"
    value {
      tensor {
        dtype: DT_INT32
        tensor_shape {
        }
        int_val: 1
      }
    }
  }
}
node {
  name: "strided_slice_3/stack_2"
  op: "Pack"
  input: "strided_slice_3/stack_2/0"
  input: "Const_9"
  attr {
    key: "N"
    value {
      i: 2
    }
  }
  attr {
    key: "T"
    value {
      type: DT_INT32
    }
  }
  attr {
    key: "_output_shapes"
    value {
      list {
        shape {
          dim {
            size: 2
          }
        }
      }
    }
  }
  attr {
    key: "axis"
    value {
      i: 0
    }
  }
}
node {
  name: "strided_slice_3"
  op: "StridedSlice"
  input: "ToFloat_3"
  input: "strided_slice_3/stack"
  input: "strided_slice_3/stack_1"
  input: "strided_slice_3/stack_2"
  attr {
    key: "Index"
    value {
      type: DT_INT32
    }
  }
  attr {
    key: "T"
    value {
      type: DT_FLOAT
    }
  }
  attr {
    key: "_output_shapes"
    value {
      list {
        shape {
          dim {
            size: 32
          }
          dim {
            size: -1
          }
          dim {
            size: 90
          }
        }
      }
    }
  }
  attr {
    key: "begin_mask"
    value {
      i: 3
    }
  }
  attr {
    key: "ellipsis_mask"
    value {
      i: 0
    }
  }
  attr {
    key: "end_mask"
    value {
      i: 1
    }
  }
  attr {
    key: "new_axis_mask"
    value {
      i: 0
    }
  }
  attr {
    key: "shrink_axis_mask"
    value {
      i: 0
    }
  }
}
node {
  name: "Pad/paddings"
  op: "Const"
  attr {
    key: "_output_shapes"
    value {
      list {
        shape {
          dim {
            size: 3
          }
          dim {
            size: 2
          }
        }
      }
    }
  }
  attr {
    key: "dtype"
    value {
      type: DT_INT32
    }
  }
  attr {
    key: "value"
    value {
      tensor {
        dtype: DT_INT32
        tensor_shape {
          dim {
            size: 3
          }
          dim {
            size: 2
          }
        }
        tensor_content: "\000\000\000\000\000\000\000\000\001\000\000\000\000\000\000\000\000\000\000\000\000\000\000\000"
      }
    }
  }
}
node {
  name: "Pad"
  op: "Pad"
  input: "strided_slice_3"
  input: "Pad/paddings"
  attr {
    key: "T"
    value {
      type: DT_FLOAT
    }
  }
  attr {
    key: "Tpaddings"
    value {
      type: DT_INT32
    }
  }
  attr {
    key: "_output_shapes"
    value {
      list {
        shape {
          dim {
            size: 32
          }
          dim {
            size: -1
          }
          dim {
            size: 90
          }
        }
      }
    }
  }
}
node {
  name: "Minimum_1"
  op: "Minimum"
  input: "IteratorGetNext:3"
  input: "Minimum"
  attr {
    key: "T"
    value {
      type: DT_INT32
    }
  }
  attr {
    key: "_output_shapes"
    value {
      list {
        shape {
          dim {
            size: 32
          }
        }
      }
    }
  }
}
node {
  name: "encoder/cell_0/bidirectional_rnn/fw/fw/Rank"
  op: "Const"
  attr {
    key: "_output_shapes"
    value {
      list {
        shape {
        }
      }
    }
  }
  attr {
    key: "dtype"
    value {
      type: DT_INT32
    }
  }
  attr {
    key: "value"
    value {
      tensor {
        dtype: DT_INT32
        tensor_shape {
        }
        int_val: 3
      }
    }
  }
}
node {
  name: "encoder/cell_0/bidirectional_rnn/fw/fw/range/start"
  op: "Const"
  attr {
    key: "_output_shapes"
    value {
      list {
        shape {
        }
      }
    }
  }
  attr {
    key: "dtype"
    value {
      type: DT_INT32
    }
  }
  attr {
    key: "value"
    value {
      tensor {
        dtype: DT_INT32
        tensor_shape {
        }
        int_val: 2
      }
    }
  }
}
node {
  name: "encoder/cell_0/bidirectional_rnn/fw/fw/range/delta"
  op: "Const"
  attr {
    key: "_output_shapes"
    value {
      list {
        shape {
        }
      }
    }
  }
  attr {
    key: "dtype"
    value {
      type: DT_INT32
    }
  }
  attr {
    key: "value"
    value {
      tensor {
        dtype: DT_INT32
        tensor_shape {
        }
        int_val: 1
      }
    }
  }
}
node {
  name: "encoder/cell_0/bidirectional_rnn/fw/fw/range"
  op: "Range"
  input: "encoder/cell_0/bidirectional_rnn/fw/fw/range/start"
  input: "encoder/cell_0/bidirectional_rnn/fw/fw/Rank"
  input: "encoder/cell_0/bidirectional_rnn/fw/fw/range/delta"
  attr {
    key: "Tidx"
    value {
      type: DT_INT32
    }
  }
  attr {
    key: "_output_shapes"
    value {
      list {
        shape {
          dim {
            size: 1
          }
        }
      }
    }
  }
}
node {
  name: "encoder/cell_0/bidirectional_rnn/fw/fw/concat/values_0"
  op: "Const"
  attr {
    key: "_output_shapes"
    value {
      list {
        shape {
          dim {
            size: 2
          }
        }
      }
    }
  }
  attr {
    key: "dtype"
    value {
      type: DT_INT32
    }
  }
  attr {
    key: "value"
    value {
      tensor {
        dtype: DT_INT32
        tensor_shape {
          dim {
            size: 2
          }
        }
        tensor_content: "\001\000\000\000\000\000\000\000"
      }
    }
  }
}
node {
  name: "encoder/cell_0/bidirectional_rnn/fw/fw/concat/axis"
  op: "Const"
  attr {
    key: "_output_shapes"
    value {
      list {
        shape {
        }
      }
    }
  }
  attr {
    key: "dtype"
    value {
      type: DT_INT32
    }
  }
  attr {
    key: "value"
    value {
      tensor {
        dtype: DT_INT32
        tensor_shape {
        }
        int_val: 0
      }
    }
  }
}
node {
  name: "encoder/cell_0/bidirectional_rnn/fw/fw/concat"
  op: "ConcatV2"
  input: "encoder/cell_0/bidirectional_rnn/fw/fw/concat/values_0"
  input: "encoder/cell_0/bidirectional_rnn/fw/fw/range"
  input: "encoder/cell_0/bidirectional_rnn/fw/fw/concat/axis"
  attr {
    key: "N"
    value {
      i: 2
    }
  }
  attr {
    key: "T"
    value {
      type: DT_INT32
    }
  }
  attr {
    key: "Tidx"
    value {
      type: DT_INT32
    }
  }
  attr {
    key: "_output_shapes"
    value {
      list {
        shape {
          dim {
            size: 3
          }
        }
      }
    }
  }
}
node {
  name: "encoder/cell_0/bidirectional_rnn/fw/fw/transpose"
  op: "Transpose"
  input: "strided_slice_1"
  input: "encoder/cell_0/bidirectional_rnn/fw/fw/concat"
  attr {
    key: "T"
    value {
      type: DT_FLOAT
    }
  }
  attr {
    key: "Tperm"
    value {
      type: DT_INT32
    }
  }
  attr {
    key: "_output_shapes"
    value {
      list {
        shape {
          dim {
            size: -1
          }
          dim {
            size: 32
          }
          dim {
            size: 90
          }
        }
      }
    }
  }
}
node {
  name: "encoder/cell_0/bidirectional_rnn/fw/fw/sequence_length"
  op: "Identity"
  input: "Minimum_1"
  attr {
    key: "T"
    value {
      type: DT_INT32
    }
  }
  attr {
    key: "_output_shapes"
    value {
      list {
        shape {
          dim {
            size: 32
          }
        }
      }
    }
  }
}
node {
  name: "encoder/cell_0/bidirectional_rnn/fw/fw/MultiRNNCellZeroState/DropoutWrapperZeroState/LSTMBlockCellZeroState/Const"
  op: "Const"
  attr {
    key: "_output_shapes"
    value {
      list {
        shape {
          dim {
            size: 1
          }
        }
      }
    }
  }
  attr {
    key: "dtype"
    value {
      type: DT_INT32
    }
  }
  attr {
    key: "value"
    value {
      tensor {
        dtype: DT_INT32
        tensor_shape {
          dim {
            size: 1
          }
        }
        int_val: 32
      }
    }
  }
}
node {
  name: "encoder/cell_0/bidirectional_rnn/fw/fw/MultiRNNCellZeroState/DropoutWrapperZeroState/LSTMBlockCellZeroState/Const_1"
  op: "Const"
  attr {
    key: "_output_shapes"
    value {
      list {
        shape {
          dim {
            size: 1
          }
        }
      }
    }
  }
  attr {
    key: "dtype"
    value {
      type: DT_INT32
    }
  }
  attr {
    key: "value"
    value {
      tensor {
        dtype: DT_INT32
        tensor_shape {
          dim {
            size: 1
          }
        }
        int_val: 512
      }
    }
  }
}
node {
  name: "encoder/cell_0/bidirectional_rnn/fw/fw/MultiRNNCellZeroState/DropoutWrapperZeroState/LSTMBlockCellZeroState/concat/axis"
  op: "Const"
  attr {
    key: "_output_shapes"
    value {
      list {
        shape {
        }
      }
    }
  }
  attr {
    key: "dtype"
    value {
      type: DT_INT32
    }
  }
  attr {
    key: "value"
    value {
      tensor {
        dtype: DT_INT32
        tensor_shape {
        }
        int_val: 0
      }
    }
  }
}
node {
  name: "encoder/cell_0/bidirectional_rnn/fw/fw/MultiRNNCellZeroState/DropoutWrapperZeroState/LSTMBlockCellZeroState/concat"
  op: "ConcatV2"
  input: "encoder/cell_0/bidirectional_rnn/fw/fw/MultiRNNCellZeroState/DropoutWrapperZeroState/LSTMBlockCellZeroState/Const"
  input: "encoder/cell_0/bidirectional_rnn/fw/fw/MultiRNNCellZeroState/DropoutWrapperZeroState/LSTMBlockCellZeroState/Const_1"
  input: "encoder/cell_0/bidirectional_rnn/fw/fw/MultiRNNCellZeroState/DropoutWrapperZeroState/LSTMBlockCellZeroState/concat/axis"
  attr {
    key: "N"
    value {
      i: 2
    }
  }
  attr {
    key: "T"
    value {
      type: DT_INT32
    }
  }
  attr {
    key: "Tidx"
    value {
      type: DT_INT32
    }
  }
  attr {
    key: "_output_shapes"
    value {
      list {
        shape {
          dim {
            size: 2
          }
        }
      }
    }
  }
}
node {
  name: "encoder/cell_0/bidirectional_rnn/fw/fw/MultiRNNCellZeroState/DropoutWrapperZeroState/LSTMBlockCellZeroState/zeros/Const"
  op: "Const"
  attr {
    key: "_output_shapes"
    value {
      list {
        shape {
        }
      }
    }
  }
  attr {
    key: "dtype"
    value {
      type: DT_FLOAT
    }
  }
  attr {
    key: "value"
    value {
      tensor {
        dtype: DT_FLOAT
        tensor_shape {
        }
        float_val: 0.0
      }
    }
  }
}
node {
  name: "encoder/cell_0/bidirectional_rnn/fw/fw/MultiRNNCellZeroState/DropoutWrapperZeroState/LSTMBlockCellZeroState/zeros"
  op: "Fill"
  input: "encoder/cell_0/bidirectional_rnn/fw/fw/MultiRNNCellZeroState/DropoutWrapperZeroState/LSTMBlockCellZeroState/concat"
  input: "encoder/cell_0/bidirectional_rnn/fw/fw/MultiRNNCellZeroState/DropoutWrapperZeroState/LSTMBlockCellZeroState/zeros/Const"
  attr {
    key: "T"
    value {
      type: DT_FLOAT
    }
  }
  attr {
    key: "_output_shapes"
    value {
      list {
        shape {
          dim {
            size: 32
          }
          dim {
            size: 512
          }
        }
      }
    }
  }
  attr {
    key: "index_type"
    value {
      type: DT_INT32
    }
  }
}
node {
  name: "encoder/cell_0/bidirectional_rnn/fw/fw/MultiRNNCellZeroState/DropoutWrapperZeroState/LSTMBlockCellZeroState/Const_2"
  op: "Const"
  attr {
    key: "_output_shapes"
    value {
      list {
        shape {
          dim {
            size: 1
          }
        }
      }
    }
  }
  attr {
    key: "dtype"
    value {
      type: DT_INT32
    }
  }
  attr {
    key: "value"
    value {
      tensor {
        dtype: DT_INT32
        tensor_shape {
          dim {
            size: 1
          }
        }
        int_val: 32
      }
    }
  }
}
node {
  name: "encoder/cell_0/bidirectional_rnn/fw/fw/MultiRNNCellZeroState/DropoutWrapperZeroState/LSTMBlockCellZeroState/Const_3"
  op: "Const"
  attr {
    key: "_output_shapes"
    value {
      list {
        shape {
          dim {
            size: 1
          }
        }
      }
    }
  }
  attr {
    key: "dtype"
    value {
      type: DT_INT32
    }
  }
  attr {
    key: "value"
    value {
      tensor {
        dtype: DT_INT32
        tensor_shape {
          dim {
            size: 1
          }
        }
        int_val: 512
      }
    }
  }
}
node {
  name: "encoder/cell_0/bidirectional_rnn/fw/fw/MultiRNNCellZeroState/DropoutWrapperZeroState/LSTMBlockCellZeroState/Const_4"
  op: "Const"
  attr {
    key: "_output_shapes"
    value {
      list {
        shape {
          dim {
            size: 1
          }
        }
      }
    }
  }
  attr {
    key: "dtype"
    value {
      type: DT_INT32
    }
  }
  attr {
    key: "value"
    value {
      tensor {
        dtype: DT_INT32
        tensor_shape {
          dim {
            size: 1
          }
        }
        int_val: 32
      }
    }
  }
}
node {
  name: "encoder/cell_0/bidirectional_rnn/fw/fw/MultiRNNCellZeroState/DropoutWrapperZeroState/LSTMBlockCellZeroState/Const_5"
  op: "Const"
  attr {
    key: "_output_shapes"
    value {
      list {
        shape {
          dim {
            size: 1
          }
        }
      }
    }
  }
  attr {
    key: "dtype"
    value {
      type: DT_INT32
    }
  }
  attr {
    key: "value"
    value {
      tensor {
        dtype: DT_INT32
        tensor_shape {
          dim {
            size: 1
          }
        }
        int_val: 512
      }
    }
  }
}
node {
  name: "encoder/cell_0/bidirectional_rnn/fw/fw/MultiRNNCellZeroState/DropoutWrapperZeroState/LSTMBlockCellZeroState/concat_1/axis"
  op: "Const"
  attr {
    key: "_output_shapes"
    value {
      list {
        shape {
        }
      }
    }
  }
  attr {
    key: "dtype"
    value {
      type: DT_INT32
    }
  }
  attr {
    key: "value"
    value {
      tensor {
        dtype: DT_INT32
        tensor_shape {
        }
        int_val: 0
      }
    }
  }
}
node {
  name: "encoder/cell_0/bidirectional_rnn/fw/fw/MultiRNNCellZeroState/DropoutWrapperZeroState/LSTMBlockCellZeroState/concat_1"
  op: "ConcatV2"
  input: "encoder/cell_0/bidirectional_rnn/fw/fw/MultiRNNCellZeroState/DropoutWrapperZeroState/LSTMBlockCellZeroState/Const_4"
  input: "encoder/cell_0/bidirectional_rnn/fw/fw/MultiRNNCellZeroState/DropoutWrapperZeroState/LSTMBlockCellZeroState/Const_5"
  input: "encoder/cell_0/bidirectional_rnn/fw/fw/MultiRNNCellZeroState/DropoutWrapperZeroState/LSTMBlockCellZeroState/concat_1/axis"
  attr {
    key: "N"
    value {
      i: 2
    }
  }
  attr {
    key: "T"
    value {
      type: DT_INT32
    }
  }
  attr {
    key: "Tidx"
    value {
      type: DT_INT32
    }
  }
  attr {
    key: "_output_shapes"
    value {
      list {
        shape {
          dim {
            size: 2
          }
        }
      }
    }
  }
}
node {
  name: "encoder/cell_0/bidirectional_rnn/fw/fw/MultiRNNCellZeroState/DropoutWrapperZeroState/LSTMBlockCellZeroState/zeros_1/Const"
  op: "Const"
  attr {
    key: "_output_shapes"
    value {
      list {
        shape {
        }
      }
    }
  }
  attr {
    key: "dtype"
    value {
      type: DT_FLOAT
    }
  }
  attr {
    key: "value"
    value {
      tensor {
        dtype: DT_FLOAT
        tensor_shape {
        }
        float_val: 0.0
      }
    }
  }
}
node {
  name: "encoder/cell_0/bidirectional_rnn/fw/fw/MultiRNNCellZeroState/DropoutWrapperZeroState/LSTMBlockCellZeroState/zeros_1"
  op: "Fill"
  input: "encoder/cell_0/bidirectional_rnn/fw/fw/MultiRNNCellZeroState/DropoutWrapperZeroState/LSTMBlockCellZeroState/concat_1"
  input: "encoder/cell_0/bidirectional_rnn/fw/fw/MultiRNNCellZeroState/DropoutWrapperZeroState/LSTMBlockCellZeroState/zeros_1/Const"
  attr {
    key: "T"
    value {
      type: DT_FLOAT
    }
  }
  attr {
    key: "_output_shapes"
    value {
      list {
        shape {
          dim {
            size: 32
          }
          dim {
            size: 512
          }
        }
      }
    }
  }
  attr {
    key: "index_type"
    value {
      type: DT_INT32
    }
  }
}
node {
  name: "encoder/cell_0/bidirectional_rnn/fw/fw/MultiRNNCellZeroState/DropoutWrapperZeroState/LSTMBlockCellZeroState/Const_6"
  op: "Const"
  attr {
    key: "_output_shapes"
    value {
      list {
        shape {
          dim {
            size: 1
          }
        }
      }
    }
  }
  attr {
    key: "dtype"
    value {
      type: DT_INT32
    }
  }
  attr {
    key: "value"
    value {
      tensor {
        dtype: DT_INT32
        tensor_shape {
          dim {
            size: 1
          }
        }
        int_val: 32
      }
    }
  }
}
node {
  name: "encoder/cell_0/bidirectional_rnn/fw/fw/MultiRNNCellZeroState/DropoutWrapperZeroState/LSTMBlockCellZeroState/Const_7"
  op: "Const"
  attr {
    key: "_output_shapes"
    value {
      list {
        shape {
          dim {
            size: 1
          }
        }
      }
    }
  }
  attr {
    key: "dtype"
    value {
      type: DT_INT32
    }
  }
  attr {
    key: "value"
    value {
      tensor {
        dtype: DT_INT32
        tensor_shape {
          dim {
            size: 1
          }
        }
        int_val: 512
      }
    }
  }
}
node {
  name: "encoder/cell_0/bidirectional_rnn/fw/fw/Shape"
  op: "Const"
  attr {
    key: "_output_shapes"
    value {
      list {
        shape {
          dim {
            size: 1
          }
        }
      }
    }
  }
  attr {
    key: "dtype"
    value {
      type: DT_INT32
    }
  }
  attr {
    key: "value"
    value {
      tensor {
        dtype: DT_INT32
        tensor_shape {
          dim {
            size: 1
          }
        }
        int_val: 32
      }
    }
  }
}
node {
  name: "encoder/cell_0/bidirectional_rnn/fw/fw/stack"
  op: "Const"
  attr {
    key: "_output_shapes"
    value {
      list {
        shape {
          dim {
            size: 1
          }
        }
      }
    }
  }
  attr {
    key: "dtype"
    value {
      type: DT_INT32
    }
  }
  attr {
    key: "value"
    value {
      tensor {
        dtype: DT_INT32
        tensor_shape {
          dim {
            size: 1
          }
        }
        int_val: 32
      }
    }
  }
}
node {
  name: "encoder/cell_0/bidirectional_rnn/fw/fw/Equal"
  op: "Equal"
  input: "encoder/cell_0/bidirectional_rnn/fw/fw/Shape"
  input: "encoder/cell_0/bidirectional_rnn/fw/fw/stack"
  attr {
    key: "T"
    value {
      type: DT_INT32
    }
  }
  attr {
    key: "_output_shapes"
    value {
      list {
        shape {
          dim {
            size: 1
          }
        }
      }
    }
  }
  attr {
    key: "incompatible_shape_error"
    value {
      b: true
    }
  }
}
node {
  name: "encoder/cell_0/bidirectional_rnn/fw/fw/Const"
  op: "Const"
  attr {
    key: "_output_shapes"
    value {
      list {
        shape {
          dim {
            size: 1
          }
        }
      }
    }
  }
  attr {
    key: "dtype"
    value {
      type: DT_INT32
    }
  }
  attr {
    key: "value"
    value {
      tensor {
        dtype: DT_INT32
        tensor_shape {
          dim {
            size: 1
          }
        }
        int_val: 0
      }
    }
  }
}
node {
  name: "encoder/cell_0/bidirectional_rnn/fw/fw/All"
  op: "All"
  input: "encoder/cell_0/bidirectional_rnn/fw/fw/Equal"
  input: "encoder/cell_0/bidirectional_rnn/fw/fw/Const"
  attr {
    key: "Tidx"
    value {
      type: DT_INT32
    }
  }
  attr {
    key: "_output_shapes"
    value {
      list {
        shape {
        }
      }
    }
  }
  attr {
    key: "keep_dims"
    value {
      b: false
    }
  }
}
node {
  name: "encoder/cell_0/bidirectional_rnn/fw/fw/Assert/Const"
  op: "Const"
  attr {
    key: "_output_shapes"
    value {
      list {
        shape {
        }
      }
    }
  }
  attr {
    key: "dtype"
    value {
      type: DT_STRING
    }
  }
  attr {
    key: "value"
    value {
      tensor {
        dtype: DT_STRING
        tensor_shape {
        }
        string_val: "Expected shape for Tensor encoder/cell_0/bidirectional_rnn/fw/fw/sequence_length:0 is "
      }
    }
  }
}
node {
  name: "encoder/cell_0/bidirectional_rnn/fw/fw/Assert/Const_1"
  op: "Const"
  attr {
    key: "_output_shapes"
    value {
      list {
        shape {
        }
      }
    }
  }
  attr {
    key: "dtype"
    value {
      type: DT_STRING
    }
  }
  attr {
    key: "value"
    value {
      tensor {
        dtype: DT_STRING
        tensor_shape {
        }
        string_val: " but saw shape: "
      }
    }
  }
}
node {
  name: "encoder/cell_0/bidirectional_rnn/fw/fw/Assert/Assert/data_0"
  op: "Const"
  attr {
    key: "_output_shapes"
    value {
      list {
        shape {
        }
      }
    }
  }
  attr {
    key: "dtype"
    value {
      type: DT_STRING
    }
  }
  attr {
    key: "value"
    value {
      tensor {
        dtype: DT_STRING
        tensor_shape {
        }
        string_val: "Expected shape for Tensor encoder/cell_0/bidirectional_rnn/fw/fw/sequence_length:0 is "
      }
    }
  }
}
node {
  name: "encoder/cell_0/bidirectional_rnn/fw/fw/Assert/Assert/data_2"
  op: "Const"
  attr {
    key: "_output_shapes"
    value {
      list {
        shape {
        }
      }
    }
  }
  attr {
    key: "dtype"
    value {
      type: DT_STRING
    }
  }
  attr {
    key: "value"
    value {
      tensor {
        dtype: DT_STRING
        tensor_shape {
        }
        string_val: " but saw shape: "
      }
    }
  }
}
node {
  name: "encoder/cell_0/bidirectional_rnn/fw/fw/Assert/Assert"
  op: "Assert"
  input: "encoder/cell_0/bidirectional_rnn/fw/fw/All"
  input: "encoder/cell_0/bidirectional_rnn/fw/fw/Assert/Assert/data_0"
  input: "encoder/cell_0/bidirectional_rnn/fw/fw/stack"
  input: "encoder/cell_0/bidirectional_rnn/fw/fw/Assert/Assert/data_2"
  input: "encoder/cell_0/bidirectional_rnn/fw/fw/Shape"
  attr {
    key: "T"
    value {
      list {
        type: DT_STRING
        type: DT_INT32
        type: DT_STRING
        type: DT_INT32
      }
    }
  }
  attr {
    key: "summarize"
    value {
      i: 3
    }
  }
}
node {
  name: "encoder/cell_0/bidirectional_rnn/fw/fw/CheckSeqLen"
  op: "Identity"
  input: "encoder/cell_0/bidirectional_rnn/fw/fw/sequence_length"
  input: "^encoder/cell_0/bidirectional_rnn/fw/fw/Assert/Assert"
  attr {
    key: "T"
    value {
      type: DT_INT32
    }
  }
  attr {
    key: "_output_shapes"
    value {
      list {
        shape {
          dim {
            size: 32
          }
        }
      }
    }
  }
}
node {
  name: "encoder/cell_0/bidirectional_rnn/fw/fw/Shape_1"
  op: "Shape"
  input: "encoder/cell_0/bidirectional_rnn/fw/fw/transpose"
  attr {
    key: "T"
    value {
      type: DT_FLOAT
    }
  }
  attr {
    key: "_output_shapes"
    value {
      list {
        shape {
          dim {
            size: 3
          }
        }
      }
    }
  }
  attr {
    key: "out_type"
    value {
      type: DT_INT32
    }
  }
}
node {
  name: "encoder/cell_0/bidirectional_rnn/fw/fw/strided_slice/stack"
  op: "Const"
  attr {
    key: "_output_shapes"
    value {
      list {
        shape {
          dim {
            size: 1
          }
        }
      }
    }
  }
  attr {
    key: "dtype"
    value {
      type: DT_INT32
    }
  }
  attr {
    key: "value"
    value {
      tensor {
        dtype: DT_INT32
        tensor_shape {
          dim {
            size: 1
          }
        }
        int_val: 0
      }
    }
  }
}
node {
  name: "encoder/cell_0/bidirectional_rnn/fw/fw/strided_slice/stack_1"
  op: "Const"
  attr {
    key: "_output_shapes"
    value {
      list {
        shape {
          dim {
            size: 1
          }
        }
      }
    }
  }
  attr {
    key: "dtype"
    value {
      type: DT_INT32
    }
  }
  attr {
    key: "value"
    value {
      tensor {
        dtype: DT_INT32
        tensor_shape {
          dim {
            size: 1
          }
        }
        int_val: 1
      }
    }
  }
}
node {
  name: "encoder/cell_0/bidirectional_rnn/fw/fw/strided_slice/stack_2"
  op: "Const"
  attr {
    key: "_output_shapes"
    value {
      list {
        shape {
          dim {
            size: 1
          }
        }
      }
    }
  }
  attr {
    key: "dtype"
    value {
      type: DT_INT32
    }
  }
  attr {
    key: "value"
    value {
      tensor {
        dtype: DT_INT32
        tensor_shape {
          dim {
            size: 1
          }
        }
        int_val: 1
      }
    }
  }
}
node {
  name: "encoder/cell_0/bidirectional_rnn/fw/fw/strided_slice"
  op: "StridedSlice"
  input: "encoder/cell_0/bidirectional_rnn/fw/fw/Shape_1"
  input: "encoder/cell_0/bidirectional_rnn/fw/fw/strided_slice/stack"
  input: "encoder/cell_0/bidirectional_rnn/fw/fw/strided_slice/stack_1"
  input: "encoder/cell_0/bidirectional_rnn/fw/fw/strided_slice/stack_2"
  attr {
    key: "Index"
    value {
      type: DT_INT32
    }
  }
  attr {
    key: "T"
    value {
      type: DT_INT32
    }
  }
  attr {
    key: "_output_shapes"
    value {
      list {
        shape {
        }
      }
    }
  }
  attr {
    key: "begin_mask"
    value {
      i: 0
    }
  }
  attr {
    key: "ellipsis_mask"
    value {
      i: 0
    }
  }
  attr {
    key: "end_mask"
    value {
      i: 0
    }
  }
  attr {
    key: "new_axis_mask"
    value {
      i: 0
    }
  }
  attr {
    key: "shrink_axis_mask"
    value {
      i: 1
    }
  }
}
node {
  name: "encoder/cell_0/bidirectional_rnn/fw/fw/Const_1"
  op: "Const"
  attr {
    key: "_output_shapes"
    value {
      list {
        shape {
          dim {
            size: 1
          }
        }
      }
    }
  }
  attr {
    key: "dtype"
    value {
      type: DT_INT32
    }
  }
  attr {
    key: "value"
    value {
      tensor {
        dtype: DT_INT32
        tensor_shape {
          dim {
            size: 1
          }
        }
        int_val: 32
      }
    }
  }
}
node {
  name: "encoder/cell_0/bidirectional_rnn/fw/fw/Const_2"
  op: "Const"
  attr {
    key: "_output_shapes"
    value {
      list {
        shape {
          dim {
            size: 1
          }
        }
      }
    }
  }
  attr {
    key: "dtype"
    value {
      type: DT_INT32
    }
  }
  attr {
    key: "value"
    value {
      tensor {
        dtype: DT_INT32
        tensor_shape {
          dim {
            size: 1
          }
        }
        int_val: 512
      }
    }
  }
}
node {
  name: "encoder/cell_0/bidirectional_rnn/fw/fw/concat_1/axis"
  op: "Const"
  attr {
    key: "_output_shapes"
    value {
      list {
        shape {
        }
      }
    }
  }
  attr {
    key: "dtype"
    value {
      type: DT_INT32
    }
  }
  attr {
    key: "value"
    value {
      tensor {
        dtype: DT_INT32
        tensor_shape {
        }
        int_val: 0
      }
    }
  }
}
node {
  name: "encoder/cell_0/bidirectional_rnn/fw/fw/concat_1"
  op: "ConcatV2"
  input: "encoder/cell_0/bidirectional_rnn/fw/fw/Const_1"
  input: "encoder/cell_0/bidirectional_rnn/fw/fw/Const_2"
  input: "encoder/cell_0/bidirectional_rnn/fw/fw/concat_1/axis"
  attr {
    key: "N"
    value {
      i: 2
    }
  }
  attr {
    key: "T"
    value {
      type: DT_INT32
    }
  }
  attr {
    key: "Tidx"
    value {
      type: DT_INT32
    }
  }
  attr {
    key: "_output_shapes"
    value {
      list {
        shape {
          dim {
            size: 2
          }
        }
      }
    }
  }
}
node {
  name: "encoder/cell_0/bidirectional_rnn/fw/fw/zeros/Const"
  op: "Const"
  attr {
    key: "_output_shapes"
    value {
      list {
        shape {
        }
      }
    }
  }
  attr {
    key: "dtype"
    value {
      type: DT_FLOAT
    }
  }
  attr {
    key: "value"
    value {
      tensor {
        dtype: DT_FLOAT
        tensor_shape {
        }
        float_val: 0.0
      }
    }
  }
}
node {
  name: "encoder/cell_0/bidirectional_rnn/fw/fw/zeros"
  op: "Fill"
  input: "encoder/cell_0/bidirectional_rnn/fw/fw/concat_1"
  input: "encoder/cell_0/bidirectional_rnn/fw/fw/zeros/Const"
  attr {
    key: "T"
    value {
      type: DT_FLOAT
    }
  }
  attr {
    key: "_output_shapes"
    value {
      list {
        shape {
          dim {
            size: 32
          }
          dim {
            size: 512
          }
        }
      }
    }
  }
  attr {
    key: "index_type"
    value {
      type: DT_INT32
    }
  }
}
node {
  name: "encoder/cell_0/bidirectional_rnn/fw/fw/Const_3"
  op: "Const"
  attr {
    key: "_output_shapes"
    value {
      list {
        shape {
          dim {
            size: 1
          }
        }
      }
    }
  }
  attr {
    key: "dtype"
    value {
      type: DT_INT32
    }
  }
  attr {
    key: "value"
    value {
      tensor {
        dtype: DT_INT32
        tensor_shape {
          dim {
            size: 1
          }
        }
        int_val: 0
      }
    }
  }
}
node {
  name: "encoder/cell_0/bidirectional_rnn/fw/fw/Min"
  op: "Min"
  input: "encoder/cell_0/bidirectional_rnn/fw/fw/CheckSeqLen"
  input: "encoder/cell_0/bidirectional_rnn/fw/fw/Const_3"
  attr {
    key: "T"
    value {
      type: DT_INT32
    }
  }
  attr {
    key: "Tidx"
    value {
      type: DT_INT32
    }
  }
  attr {
    key: "_output_shapes"
    value {
      list {
        shape {
        }
      }
    }
  }
  attr {
    key: "keep_dims"
    value {
      b: false
    }
  }
}
node {
  name: "encoder/cell_0/bidirectional_rnn/fw/fw/Const_4"
  op: "Const"
  attr {
    key: "_output_shapes"
    value {
      list {
        shape {
          dim {
            size: 1
          }
        }
      }
    }
  }
  attr {
    key: "dtype"
    value {
      type: DT_INT32
    }
  }
  attr {
    key: "value"
    value {
      tensor {
        dtype: DT_INT32
        tensor_shape {
          dim {
            size: 1
          }
        }
        int_val: 0
      }
    }
  }
}
node {
  name: "encoder/cell_0/bidirectional_rnn/fw/fw/Max"
  op: "Max"
  input: "encoder/cell_0/bidirectional_rnn/fw/fw/CheckSeqLen"
  input: "encoder/cell_0/bidirectional_rnn/fw/fw/Const_4"
  attr {
    key: "T"
    value {
      type: DT_INT32
    }
  }
  attr {
    key: "Tidx"
    value {
      type: DT_INT32
    }
  }
  attr {
    key: "_output_shapes"
    value {
      list {
        shape {
        }
      }
    }
  }
  attr {
    key: "keep_dims"
    value {
      b: false
    }
  }
}
node {
  name: "encoder/cell_0/bidirectional_rnn/fw/fw/time"
  op: "Const"
  attr {
    key: "_output_shapes"
    value {
      list {
        shape {
        }
      }
    }
  }
  attr {
    key: "dtype"
    value {
      type: DT_INT32
    }
  }
  attr {
    key: "value"
    value {
      tensor {
        dtype: DT_INT32
        tensor_shape {
        }
        int_val: 0
      }
    }
  }
}
node {
  name: "encoder/cell_0/bidirectional_rnn/fw/fw/TensorArray"
  op: "TensorArrayV3"
  input: "encoder/cell_0/bidirectional_rnn/fw/fw/strided_slice"
  attr {
    key: "_output_shapes"
    value {
      list {
        shape {
          dim {
            size: 2
          }
        }
        shape {
        }
      }
    }
  }
  attr {
    key: "clear_after_read"
    value {
      b: true
    }
  }
  attr {
    key: "dtype"
    value {
      type: DT_FLOAT
    }
  }
  attr {
    key: "dynamic_size"
    value {
      b: false
    }
  }
  attr {
    key: "element_shape"
    value {
      shape {
        dim {
          size: 32
        }
        dim {
          size: 512
        }
      }
    }
  }
  attr {
    key: "identical_element_shapes"
    value {
      b: true
    }
  }
  attr {
    key: "tensor_array_name"
    value {
      s: "encoder/cell_0/bidirectional_rnn/fw/fw/dynamic_rnn/output_0"
    }
  }
}
node {
  name: "encoder/cell_0/bidirectional_rnn/fw/fw/TensorArray_1"
  op: "TensorArrayV3"
  input: "encoder/cell_0/bidirectional_rnn/fw/fw/strided_slice"
  attr {
    key: "_output_shapes"
    value {
      list {
        shape {
          dim {
            size: 2
          }
        }
        shape {
        }
      }
    }
  }
  attr {
    key: "clear_after_read"
    value {
      b: true
    }
  }
  attr {
    key: "dtype"
    value {
      type: DT_FLOAT
    }
  }
  attr {
    key: "dynamic_size"
    value {
      b: false
    }
  }
  attr {
    key: "element_shape"
    value {
      shape {
        dim {
          size: 32
        }
        dim {
          size: 90
        }
      }
    }
  }
  attr {
    key: "identical_element_shapes"
    value {
      b: true
    }
  }
  attr {
    key: "tensor_array_name"
    value {
      s: "encoder/cell_0/bidirectional_rnn/fw/fw/dynamic_rnn/input_0"
    }
  }
}
node {
  name: "encoder/cell_0/bidirectional_rnn/fw/fw/TensorArrayUnstack/Shape"
  op: "Shape"
  input: "encoder/cell_0/bidirectional_rnn/fw/fw/transpose"
  attr {
    key: "T"
    value {
      type: DT_FLOAT
    }
  }
  attr {
    key: "_output_shapes"
    value {
      list {
        shape {
          dim {
            size: 3
          }
        }
      }
    }
  }
  attr {
    key: "out_type"
    value {
      type: DT_INT32
    }
  }
}
node {
  name: "encoder/cell_0/bidirectional_rnn/fw/fw/TensorArrayUnstack/strided_slice/stack"
  op: "Const"
  attr {
    key: "_output_shapes"
    value {
      list {
        shape {
          dim {
            size: 1
          }
        }
      }
    }
  }
  attr {
    key: "dtype"
    value {
      type: DT_INT32
    }
  }
  attr {
    key: "value"
    value {
      tensor {
        dtype: DT_INT32
        tensor_shape {
          dim {
            size: 1
          }
        }
        int_val: 0
      }
    }
  }
}
node {
  name: "encoder/cell_0/bidirectional_rnn/fw/fw/TensorArrayUnstack/strided_slice/stack_1"
  op: "Const"
  attr {
    key: "_output_shapes"
    value {
      list {
        shape {
          dim {
            size: 1
          }
        }
      }
    }
  }
  attr {
    key: "dtype"
    value {
      type: DT_INT32
    }
  }
  attr {
    key: "value"
    value {
      tensor {
        dtype: DT_INT32
        tensor_shape {
          dim {
            size: 1
          }
        }
        int_val: 1
      }
    }
  }
}
node {
  name: "encoder/cell_0/bidirectional_rnn/fw/fw/TensorArrayUnstack/strided_slice/stack_2"
  op: "Const"
  attr {
    key: "_output_shapes"
    value {
      list {
        shape {
          dim {
            size: 1
          }
        }
      }
    }
  }
  attr {
    key: "dtype"
    value {
      type: DT_INT32
    }
  }
  attr {
    key: "value"
    value {
      tensor {
        dtype: DT_INT32
        tensor_shape {
          dim {
            size: 1
          }
        }
        int_val: 1
      }
    }
  }
}
node {
  name: "encoder/cell_0/bidirectional_rnn/fw/fw/TensorArrayUnstack/strided_slice"
  op: "StridedSlice"
  input: "encoder/cell_0/bidirectional_rnn/fw/fw/TensorArrayUnstack/Shape"
  input: "encoder/cell_0/bidirectional_rnn/fw/fw/TensorArrayUnstack/strided_slice/stack"
  input: "encoder/cell_0/bidirectional_rnn/fw/fw/TensorArrayUnstack/strided_slice/stack_1"
  input: "encoder/cell_0/bidirectional_rnn/fw/fw/TensorArrayUnstack/strided_slice/stack_2"
  attr {
    key: "Index"
    value {
      type: DT_INT32
    }
  }
  attr {
    key: "T"
    value {
      type: DT_INT32
    }
  }
  attr {
    key: "_output_shapes"
    value {
      list {
        shape {
        }
      }
    }
  }
  attr {
    key: "begin_mask"
    value {
      i: 0
    }
  }
  attr {
    key: "ellipsis_mask"
    value {
      i: 0
    }
  }
  attr {
    key: "end_mask"
    value {
      i: 0
    }
  }
  attr {
    key: "new_axis_mask"
    value {
      i: 0
    }
  }
  attr {
    key: "shrink_axis_mask"
    value {
      i: 1
    }
  }
}
node {
  name: "encoder/cell_0/bidirectional_rnn/fw/fw/TensorArrayUnstack/range/start"
  op: "Const"
  attr {
    key: "_output_shapes"
    value {
      list {
        shape {
        }
      }
    }
  }
  attr {
    key: "dtype"
    value {
      type: DT_INT32
    }
  }
  attr {
    key: "value"
    value {
      tensor {
        dtype: DT_INT32
        tensor_shape {
        }
        int_val: 0
      }
    }
  }
}
node {
  name: "encoder/cell_0/bidirectional_rnn/fw/fw/TensorArrayUnstack/range/delta"
  op: "Const"
  attr {
    key: "_output_shapes"
    value {
      list {
        shape {
        }
      }
    }
  }
  attr {
    key: "dtype"
    value {
      type: DT_INT32
    }
  }
  attr {
    key: "value"
    value {
      tensor {
        dtype: DT_INT32
        tensor_shape {
        }
        int_val: 1
      }
    }
  }
}
node {
  name: "encoder/cell_0/bidirectional_rnn/fw/fw/TensorArrayUnstack/range"
  op: "Range"
  input: "encoder/cell_0/bidirectional_rnn/fw/fw/TensorArrayUnstack/range/start"
  input: "encoder/cell_0/bidirectional_rnn/fw/fw/TensorArrayUnstack/strided_slice"
  input: "encoder/cell_0/bidirectional_rnn/fw/fw/TensorArrayUnstack/range/delta"
  attr {
    key: "Tidx"
    value {
      type: DT_INT32
    }
  }
  attr {
    key: "_output_shapes"
    value {
      list {
        shape {
          dim {
            size: -1
          }
        }
      }
    }
  }
}
node {
  name: "encoder/cell_0/bidirectional_rnn/fw/fw/TensorArrayUnstack/TensorArrayScatter/TensorArrayScatterV3"
  op: "TensorArrayScatterV3"
  input: "encoder/cell_0/bidirectional_rnn/fw/fw/TensorArray_1"
  input: "encoder/cell_0/bidirectional_rnn/fw/fw/TensorArrayUnstack/range"
  input: "encoder/cell_0/bidirectional_rnn/fw/fw/transpose"
  input: "encoder/cell_0/bidirectional_rnn/fw/fw/TensorArray_1:1"
  attr {
    key: "T"
    value {
      type: DT_FLOAT
    }
  }
  attr {
    key: "_class"
    value {
      list {
        s: "loc:@encoder/cell_0/bidirectional_rnn/fw/fw/transpose"
      }
    }
  }
  attr {
    key: "_output_shapes"
    value {
      list {
        shape {
        }
      }
    }
  }
}
node {
  name: "encoder/cell_0/bidirectional_rnn/fw/fw/Maximum/x"
  op: "Const"
  attr {
    key: "_output_shapes"
    value {
      list {
        shape {
        }
      }
    }
  }
  attr {
    key: "dtype"
    value {
      type: DT_INT32
    }
  }
  attr {
    key: "value"
    value {
      tensor {
        dtype: DT_INT32
        tensor_shape {
        }
        int_val: 1
      }
    }
  }
}
node {
  name: "encoder/cell_0/bidirectional_rnn/fw/fw/Maximum"
  op: "Maximum"
  input: "encoder/cell_0/bidirectional_rnn/fw/fw/Maximum/x"
  input: "encoder/cell_0/bidirectional_rnn/fw/fw/Max"
  attr {
    key: "T"
    value {
      type: DT_INT32
    }
  }
  attr {
    key: "_output_shapes"
    value {
      list {
        shape {
        }
      }
    }
  }
}
node {
  name: "encoder/cell_0/bidirectional_rnn/fw/fw/Minimum"
  op: "Minimum"
  input: "encoder/cell_0/bidirectional_rnn/fw/fw/strided_slice"
  input: "encoder/cell_0/bidirectional_rnn/fw/fw/Maximum"
  attr {
    key: "T"
    value {
      type: DT_INT32
    }
  }
  attr {
    key: "_output_shapes"
    value {
      list {
        shape {
        }
      }
    }
  }
}
node {
  name: "encoder/cell_0/bidirectional_rnn/fw/fw/while/iteration_counter"
  op: "Const"
  attr {
    key: "_output_shapes"
    value {
      list {
        shape {
        }
      }
    }
  }
  attr {
    key: "dtype"
    value {
      type: DT_INT32
    }
  }
  attr {
    key: "value"
    value {
      tensor {
        dtype: DT_INT32
        tensor_shape {
        }
        int_val: 0
      }
    }
  }
}
node {
  name: "encoder/cell_0/bidirectional_rnn/fw/fw/while/Enter"
  op: "Enter"
  input: "encoder/cell_0/bidirectional_rnn/fw/fw/while/iteration_counter"
  attr {
    key: "T"
    value {
      type: DT_INT32
    }
  }
  attr {
    key: "_output_shapes"
    value {
      list {
        shape {
        }
      }
    }
  }
  attr {
    key: "frame_name"
    value {
      s: "encoder/cell_0/bidirectional_rnn/fw/fw/while/while_context"
    }
  }
  attr {
    key: "is_constant"
    value {
      b: false
    }
  }
  attr {
    key: "parallel_iterations"
    value {
      i: 32
    }
  }
}
node {
  name: "encoder/cell_0/bidirectional_rnn/fw/fw/while/Enter_1"
  op: "Enter"
  input: "encoder/cell_0/bidirectional_rnn/fw/fw/time"
  attr {
    key: "T"
    value {
      type: DT_INT32
    }
  }
  attr {
    key: "_output_shapes"
    value {
      list {
        shape {
        }
      }
    }
  }
  attr {
    key: "frame_name"
    value {
      s: "encoder/cell_0/bidirectional_rnn/fw/fw/while/while_context"
    }
  }
  attr {
    key: "is_constant"
    value {
      b: false
    }
  }
  attr {
    key: "parallel_iterations"
    value {
      i: 32
    }
  }
}
node {
  name: "encoder/cell_0/bidirectional_rnn/fw/fw/while/Enter_2"
  op: "Enter"
  input: "encoder/cell_0/bidirectional_rnn/fw/fw/TensorArray:1"
  attr {
    key: "T"
    value {
      type: DT_FLOAT
    }
  }
  attr {
    key: "_output_shapes"
    value {
      list {
        shape {
        }
      }
    }
  }
  attr {
    key: "frame_name"
    value {
      s: "encoder/cell_0/bidirectional_rnn/fw/fw/while/while_context"
    }
  }
  attr {
    key: "is_constant"
    value {
      b: false
    }
  }
  attr {
    key: "parallel_iterations"
    value {
      i: 32
    }
  }
}
node {
  name: "encoder/cell_0/bidirectional_rnn/fw/fw/while/Enter_3"
  op: "Enter"
  input: "encoder/cell_0/bidirectional_rnn/fw/fw/MultiRNNCellZeroState/DropoutWrapperZeroState/LSTMBlockCellZeroState/zeros"
  attr {
    key: "T"
    value {
      type: DT_FLOAT
    }
  }
  attr {
    key: "_output_shapes"
    value {
      list {
        shape {
          dim {
            size: 32
          }
          dim {
            size: 512
          }
        }
      }
    }
  }
  attr {
    key: "frame_name"
    value {
      s: "encoder/cell_0/bidirectional_rnn/fw/fw/while/while_context"
    }
  }
  attr {
    key: "is_constant"
    value {
      b: false
    }
  }
  attr {
    key: "parallel_iterations"
    value {
      i: 32
    }
  }
}
node {
  name: "encoder/cell_0/bidirectional_rnn/fw/fw/while/Enter_4"
  op: "Enter"
  input: "encoder/cell_0/bidirectional_rnn/fw/fw/MultiRNNCellZeroState/DropoutWrapperZeroState/LSTMBlockCellZeroState/zeros_1"
  attr {
    key: "T"
    value {
      type: DT_FLOAT
    }
  }
  attr {
    key: "_output_shapes"
    value {
      list {
        shape {
          dim {
            size: 32
          }
          dim {
            size: 512
          }
        }
      }
    }
  }
  attr {
    key: "frame_name"
    value {
      s: "encoder/cell_0/bidirectional_rnn/fw/fw/while/while_context"
    }
  }
  attr {
    key: "is_constant"
    value {
      b: false
    }
  }
  attr {
    key: "parallel_iterations"
    value {
      i: 32
    }
  }
}
node {
  name: "encoder/cell_0/bidirectional_rnn/fw/fw/while/Merge"
  op: "Merge"
  input: "encoder/cell_0/bidirectional_rnn/fw/fw/while/Enter"
  input: "encoder/cell_0/bidirectional_rnn/fw/fw/while/NextIteration"
  attr {
    key: "N"
    value {
      i: 2
    }
  }
  attr {
    key: "T"
    value {
      type: DT_INT32
    }
  }
  attr {
    key: "_output_shapes"
    value {
      list {
        shape {
        }
        shape {
        }
      }
    }
  }
}
node {
  name: "encoder/cell_0/bidirectional_rnn/fw/fw/while/Merge_1"
  op: "Merge"
  input: "encoder/cell_0/bidirectional_rnn/fw/fw/while/Enter_1"
  input: "encoder/cell_0/bidirectional_rnn/fw/fw/while/NextIteration_1"
  attr {
    key: "N"
    value {
      i: 2
    }
  }
  attr {
    key: "T"
    value {
      type: DT_INT32
    }
  }
  attr {
    key: "_output_shapes"
    value {
      list {
        shape {
        }
        shape {
        }
      }
    }
  }
}
node {
  name: "encoder/cell_0/bidirectional_rnn/fw/fw/while/Merge_2"
  op: "Merge"
  input: "encoder/cell_0/bidirectional_rnn/fw/fw/while/Enter_2"
  input: "encoder/cell_0/bidirectional_rnn/fw/fw/while/NextIteration_2"
  attr {
    key: "N"
    value {
      i: 2
    }
  }
  attr {
    key: "T"
    value {
      type: DT_FLOAT
    }
  }
  attr {
    key: "_output_shapes"
    value {
      list {
        shape {
        }
        shape {
        }
      }
    }
  }
}
node {
  name: "encoder/cell_0/bidirectional_rnn/fw/fw/while/Merge_3"
  op: "Merge"
  input: "encoder/cell_0/bidirectional_rnn/fw/fw/while/Enter_3"
  input: "encoder/cell_0/bidirectional_rnn/fw/fw/while/NextIteration_3"
  attr {
    key: "N"
    value {
      i: 2
    }
  }
  attr {
    key: "T"
    value {
      type: DT_FLOAT
    }
  }
  attr {
    key: "_output_shapes"
    value {
      list {
        shape {
          dim {
            size: 32
          }
          dim {
            size: 512
          }
        }
        shape {
        }
      }
    }
  }
}
node {
  name: "encoder/cell_0/bidirectional_rnn/fw/fw/while/Merge_4"
  op: "Merge"
  input: "encoder/cell_0/bidirectional_rnn/fw/fw/while/Enter_4"
  input: "encoder/cell_0/bidirectional_rnn/fw/fw/while/NextIteration_4"
  attr {
    key: "N"
    value {
      i: 2
    }
  }
  attr {
    key: "T"
    value {
      type: DT_FLOAT
    }
  }
  attr {
    key: "_output_shapes"
    value {
      list {
        shape {
          dim {
            size: 32
          }
          dim {
            size: 512
          }
        }
        shape {
        }
      }
    }
  }
}
node {
  name: "encoder/cell_0/bidirectional_rnn/fw/fw/while/Less"
  op: "Less"
  input: "encoder/cell_0/bidirectional_rnn/fw/fw/while/Merge"
  input: "encoder/cell_0/bidirectional_rnn/fw/fw/while/Less/Enter"
  attr {
    key: "T"
    value {
      type: DT_INT32
    }
  }
  attr {
    key: "_output_shapes"
    value {
      list {
        shape {
        }
      }
    }
  }
}
node {
  name: "encoder/cell_0/bidirectional_rnn/fw/fw/while/Less/Enter"
  op: "Enter"
  input: "encoder/cell_0/bidirectional_rnn/fw/fw/strided_slice"
  attr {
    key: "T"
    value {
      type: DT_INT32
    }
  }
  attr {
    key: "_output_shapes"
    value {
      list {
        shape {
        }
      }
    }
  }
  attr {
    key: "frame_name"
    value {
      s: "encoder/cell_0/bidirectional_rnn/fw/fw/while/while_context"
    }
  }
  attr {
    key: "is_constant"
    value {
      b: true
    }
  }
  attr {
    key: "parallel_iterations"
    value {
      i: 32
    }
  }
}
node {
  name: "encoder/cell_0/bidirectional_rnn/fw/fw/while/Less_1"
  op: "Less"
  input: "encoder/cell_0/bidirectional_rnn/fw/fw/while/Merge_1"
  input: "encoder/cell_0/bidirectional_rnn/fw/fw/while/Less_1/Enter"
  attr {
    key: "T"
    value {
      type: DT_INT32
    }
  }
  attr {
    key: "_output_shapes"
    value {
      list {
        shape {
        }
      }
    }
  }
}
node {
  name: "encoder/cell_0/bidirectional_rnn/fw/fw/while/Less_1/Enter"
  op: "Enter"
  input: "encoder/cell_0/bidirectional_rnn/fw/fw/Minimum"
  attr {
    key: "T"
    value {
      type: DT_INT32
    }
  }
  attr {
    key: "_output_shapes"
    value {
      list {
        shape {
        }
      }
    }
  }
  attr {
    key: "frame_name"
    value {
      s: "encoder/cell_0/bidirectional_rnn/fw/fw/while/while_context"
    }
  }
  attr {
    key: "is_constant"
    value {
      b: true
    }
  }
  attr {
    key: "parallel_iterations"
    value {
      i: 32
    }
  }
}
node {
  name: "encoder/cell_0/bidirectional_rnn/fw/fw/while/LogicalAnd"
  op: "LogicalAnd"
  input: "encoder/cell_0/bidirectional_rnn/fw/fw/while/Less"
  input: "encoder/cell_0/bidirectional_rnn/fw/fw/while/Less_1"
  attr {
    key: "_output_shapes"
    value {
      list {
        shape {
        }
      }
    }
  }
}
node {
  name: "encoder/cell_0/bidirectional_rnn/fw/fw/while/LoopCond"
  op: "LoopCond"
  input: "encoder/cell_0/bidirectional_rnn/fw/fw/while/LogicalAnd"
  attr {
    key: "_output_shapes"
    value {
      list {
        shape {
        }
      }
    }
  }
}
node {
  name: "encoder/cell_0/bidirectional_rnn/fw/fw/while/Switch"
  op: "Switch"
  input: "encoder/cell_0/bidirectional_rnn/fw/fw/while/Merge"
  input: "encoder/cell_0/bidirectional_rnn/fw/fw/while/LoopCond"
  attr {
    key: "T"
    value {
      type: DT_INT32
    }
  }
  attr {
    key: "_class"
    value {
      list {
        s: "loc:@encoder/cell_0/bidirectional_rnn/fw/fw/while/Merge"
      }
    }
  }
  attr {
    key: "_output_shapes"
    value {
      list {
        shape {
        }
        shape {
        }
      }
    }
  }
}
node {
  name: "encoder/cell_0/bidirectional_rnn/fw/fw/while/Switch_1"
  op: "Switch"
  input: "encoder/cell_0/bidirectional_rnn/fw/fw/while/Merge_1"
  input: "encoder/cell_0/bidirectional_rnn/fw/fw/while/LoopCond"
  attr {
    key: "T"
    value {
      type: DT_INT32
    }
  }
  attr {
    key: "_class"
    value {
      list {
        s: "loc:@encoder/cell_0/bidirectional_rnn/fw/fw/while/Merge_1"
      }
    }
  }
  attr {
    key: "_output_shapes"
    value {
      list {
        shape {
        }
        shape {
        }
      }
    }
  }
}
node {
  name: "encoder/cell_0/bidirectional_rnn/fw/fw/while/Switch_2"
  op: "Switch"
  input: "encoder/cell_0/bidirectional_rnn/fw/fw/while/Merge_2"
  input: "encoder/cell_0/bidirectional_rnn/fw/fw/while/LoopCond"
  attr {
    key: "T"
    value {
      type: DT_FLOAT
    }
  }
  attr {
    key: "_class"
    value {
      list {
        s: "loc:@encoder/cell_0/bidirectional_rnn/fw/fw/while/Merge_2"
      }
    }
  }
  attr {
    key: "_output_shapes"
    value {
      list {
        shape {
        }
        shape {
        }
      }
    }
  }
}
node {
  name: "encoder/cell_0/bidirectional_rnn/fw/fw/while/Switch_3"
  op: "Switch"
  input: "encoder/cell_0/bidirectional_rnn/fw/fw/while/Merge_3"
  input: "encoder/cell_0/bidirectional_rnn/fw/fw/while/LoopCond"
  attr {
    key: "T"
    value {
      type: DT_FLOAT
    }
  }
  attr {
    key: "_class"
    value {
      list {
        s: "loc:@encoder/cell_0/bidirectional_rnn/fw/fw/while/Merge_3"
      }
    }
  }
  attr {
    key: "_output_shapes"
    value {
      list {
        shape {
          dim {
            size: 32
          }
          dim {
            size: 512
          }
        }
        shape {
          dim {
            size: 32
          }
          dim {
            size: 512
          }
        }
      }
    }
  }
}
node {
  name: "encoder/cell_0/bidirectional_rnn/fw/fw/while/Switch_4"
  op: "Switch"
  input: "encoder/cell_0/bidirectional_rnn/fw/fw/while/Merge_4"
  input: "encoder/cell_0/bidirectional_rnn/fw/fw/while/LoopCond"
  attr {
    key: "T"
    value {
      type: DT_FLOAT
    }
  }
  attr {
    key: "_class"
    value {
      list {
        s: "loc:@encoder/cell_0/bidirectional_rnn/fw/fw/while/Merge_4"
      }
    }
  }
  attr {
    key: "_output_shapes"
    value {
      list {
        shape {
          dim {
            size: 32
          }
          dim {
            size: 512
          }
        }
        shape {
          dim {
            size: 32
          }
          dim {
            size: 512
          }
        }
      }
    }
  }
}
node {
  name: "encoder/cell_0/bidirectional_rnn/fw/fw/while/Identity"
  op: "Identity"
  input: "encoder/cell_0/bidirectional_rnn/fw/fw/while/Switch:1"
  attr {
    key: "T"
    value {
      type: DT_INT32
    }
  }
  attr {
    key: "_output_shapes"
    value {
      list {
        shape {
        }
      }
    }
  }
}
node {
  name: "encoder/cell_0/bidirectional_rnn/fw/fw/while/Identity_1"
  op: "Identity"
  input: "encoder/cell_0/bidirectional_rnn/fw/fw/while/Switch_1:1"
  attr {
    key: "T"
    value {
      type: DT_INT32
    }
  }
  attr {
    key: "_output_shapes"
    value {
      list {
        shape {
        }
      }
    }
  }
}
node {
  name: "encoder/cell_0/bidirectional_rnn/fw/fw/while/Identity_2"
  op: "Identity"
  input: "encoder/cell_0/bidirectional_rnn/fw/fw/while/Switch_2:1"
  attr {
    key: "T"
    value {
      type: DT_FLOAT
    }
  }
  attr {
    key: "_output_shapes"
    value {
      list {
        shape {
        }
      }
    }
  }
}
node {
  name: "encoder/cell_0/bidirectional_rnn/fw/fw/while/Identity_3"
  op: "Identity"
  input: "encoder/cell_0/bidirectional_rnn/fw/fw/while/Switch_3:1"
  attr {
    key: "T"
    value {
      type: DT_FLOAT
    }
  }
  attr {
    key: "_output_shapes"
    value {
      list {
        shape {
          dim {
            size: 32
          }
          dim {
            size: 512
          }
        }
      }
    }
  }
}
node {
  name: "encoder/cell_0/bidirectional_rnn/fw/fw/while/Identity_4"
  op: "Identity"
  input: "encoder/cell_0/bidirectional_rnn/fw/fw/while/Switch_4:1"
  attr {
    key: "T"
    value {
      type: DT_FLOAT
    }
  }
  attr {
    key: "_output_shapes"
    value {
      list {
        shape {
          dim {
            size: 32
          }
          dim {
            size: 512
          }
        }
      }
    }
  }
}
node {
  name: "encoder/cell_0/bidirectional_rnn/fw/fw/while/add/y"
  op: "Const"
  input: "^encoder/cell_0/bidirectional_rnn/fw/fw/while/Identity"
  attr {
    key: "_output_shapes"
    value {
      list {
        shape {
        }
      }
    }
  }
  attr {
    key: "dtype"
    value {
      type: DT_INT32
    }
  }
  attr {
    key: "value"
    value {
      tensor {
        dtype: DT_INT32
        tensor_shape {
        }
        int_val: 1
      }
    }
  }
}
node {
  name: "encoder/cell_0/bidirectional_rnn/fw/fw/while/add"
  op: "AddV2"
  input: "encoder/cell_0/bidirectional_rnn/fw/fw/while/Identity"
  input: "encoder/cell_0/bidirectional_rnn/fw/fw/while/add/y"
  attr {
    key: "T"
    value {
      type: DT_INT32
    }
  }
  attr {
    key: "_output_shapes"
    value {
      list {
        shape {
        }
      }
    }
  }
}
node {
  name: "encoder/cell_0/bidirectional_rnn/fw/fw/while/TensorArrayReadV3"
  op: "TensorArrayReadV3"
  input: "encoder/cell_0/bidirectional_rnn/fw/fw/while/TensorArrayReadV3/Enter"
  input: "encoder/cell_0/bidirectional_rnn/fw/fw/while/Identity_1"
  input: "encoder/cell_0/bidirectional_rnn/fw/fw/while/TensorArrayReadV3/Enter_1"
  attr {
    key: "_output_shapes"
    value {
      list {
        shape {
          dim {
            size: 32
          }
          dim {
            size: 90
          }
        }
      }
    }
  }
  attr {
    key: "dtype"
    value {
      type: DT_FLOAT
    }
  }
}
node {
  name: "encoder/cell_0/bidirectional_rnn/fw/fw/while/TensorArrayReadV3/Enter"
  op: "Enter"
  input: "encoder/cell_0/bidirectional_rnn/fw/fw/TensorArray_1"
  attr {
    key: "T"
    value {
      type: DT_RESOURCE
    }
  }
  attr {
    key: "_output_shapes"
    value {
      list {
        shape {
          dim {
            size: 2
          }
        }
      }
    }
  }
  attr {
    key: "frame_name"
    value {
      s: "encoder/cell_0/bidirectional_rnn/fw/fw/while/while_context"
    }
  }
  attr {
    key: "is_constant"
    value {
      b: true
    }
  }
  attr {
    key: "parallel_iterations"
    value {
      i: 32
    }
  }
}
node {
  name: "encoder/cell_0/bidirectional_rnn/fw/fw/while/TensorArrayReadV3/Enter_1"
  op: "Enter"
  input: "encoder/cell_0/bidirectional_rnn/fw/fw/TensorArrayUnstack/TensorArrayScatter/TensorArrayScatterV3"
  attr {
    key: "T"
    value {
      type: DT_FLOAT
    }
  }
  attr {
    key: "_output_shapes"
    value {
      list {
        shape {
        }
      }
    }
  }
  attr {
    key: "frame_name"
    value {
      s: "encoder/cell_0/bidirectional_rnn/fw/fw/while/while_context"
    }
  }
  attr {
    key: "is_constant"
    value {
      b: true
    }
  }
  attr {
    key: "parallel_iterations"
    value {
      i: 32
    }
  }
}
node {
  name: "encoder/cell_0/bidirectional_rnn/fw/fw/while/GreaterEqual"
  op: "GreaterEqual"
  input: "encoder/cell_0/bidirectional_rnn/fw/fw/while/Identity_1"
  input: "encoder/cell_0/bidirectional_rnn/fw/fw/while/GreaterEqual/Enter"
  attr {
    key: "T"
    value {
      type: DT_INT32
    }
  }
  attr {
    key: "_output_shapes"
    value {
      list {
        shape {
          dim {
            size: 32
          }
        }
      }
    }
  }
}
node {
  name: "encoder/cell_0/bidirectional_rnn/fw/fw/while/GreaterEqual/Enter"
  op: "Enter"
  input: "encoder/cell_0/bidirectional_rnn/fw/fw/CheckSeqLen"
  attr {
    key: "T"
    value {
      type: DT_INT32
    }
  }
  attr {
    key: "_output_shapes"
    value {
      list {
        shape {
          dim {
            size: 32
          }
        }
      }
    }
  }
  attr {
    key: "frame_name"
    value {
      s: "encoder/cell_0/bidirectional_rnn/fw/fw/while/while_context"
    }
  }
  attr {
    key: "is_constant"
    value {
      b: true
    }
  }
  attr {
    key: "parallel_iterations"
    value {
      i: 32
    }
  }
}
node {
  name: "encoder/cell_0/bidirectional_rnn/fw/multi_rnn_cell/cell_0/lstm_cell/kernel/Initializer/random_uniform/shape"
  op: "Const"
  attr {
    key: "_class"
    value {
      list {
        s: "loc:@encoder/cell_0/bidirectional_rnn/fw/multi_rnn_cell/cell_0/lstm_cell/kernel"
      }
    }
  }
  attr {
    key: "_output_shapes"
    value {
      list {
        shape {
          dim {
            size: 2
          }
        }
      }
    }
  }
  attr {
    key: "dtype"
    value {
      type: DT_INT32
    }
  }
  attr {
    key: "value"
    value {
      tensor {
        dtype: DT_INT32
        tensor_shape {
          dim {
            size: 2
          }
        }
        tensor_content: "Z\002\000\000\000\010\000\000"
      }
    }
  }
}
node {
  name: "encoder/cell_0/bidirectional_rnn/fw/multi_rnn_cell/cell_0/lstm_cell/kernel/Initializer/random_uniform/min"
  op: "Const"
  attr {
    key: "_class"
    value {
      list {
        s: "loc:@encoder/cell_0/bidirectional_rnn/fw/multi_rnn_cell/cell_0/lstm_cell/kernel"
      }
    }
  }
  attr {
    key: "_output_shapes"
    value {
      list {
        shape {
        }
      }
    }
  }
  attr {
    key: "dtype"
    value {
      type: DT_FLOAT
    }
  }
  attr {
    key: "value"
    value {
      tensor {
        dtype: DT_FLOAT
        tensor_shape {
        }
        float_val: -0.047583095729351044
      }
    }
  }
}
node {
  name: "encoder/cell_0/bidirectional_rnn/fw/multi_rnn_cell/cell_0/lstm_cell/kernel/Initializer/random_uniform/max"
  op: "Const"
  attr {
    key: "_class"
    value {
      list {
        s: "loc:@encoder/cell_0/bidirectional_rnn/fw/multi_rnn_cell/cell_0/lstm_cell/kernel"
      }
    }
  }
  attr {
    key: "_output_shapes"
    value {
      list {
        shape {
        }
      }
    }
  }
  attr {
    key: "dtype"
    value {
      type: DT_FLOAT
    }
  }
  attr {
    key: "value"
    value {
      tensor {
        dtype: DT_FLOAT
        tensor_shape {
        }
        float_val: 0.047583095729351044
      }
    }
  }
}
node {
  name: "encoder/cell_0/bidirectional_rnn/fw/multi_rnn_cell/cell_0/lstm_cell/kernel/Initializer/random_uniform/RandomUniform"
  op: "RandomUniform"
  input: "encoder/cell_0/bidirectional_rnn/fw/multi_rnn_cell/cell_0/lstm_cell/kernel/Initializer/random_uniform/shape"
  attr {
    key: "T"
    value {
      type: DT_INT32
    }
  }
  attr {
    key: "_class"
    value {
      list {
        s: "loc:@encoder/cell_0/bidirectional_rnn/fw/multi_rnn_cell/cell_0/lstm_cell/kernel"
      }
    }
  }
  attr {
    key: "_output_shapes"
    value {
      list {
        shape {
          dim {
            size: 602
          }
          dim {
            size: 2048
          }
        }
      }
    }
  }
  attr {
    key: "dtype"
    value {
      type: DT_FLOAT
    }
  }
  attr {
    key: "seed"
    value {
      i: 0
    }
  }
  attr {
    key: "seed2"
    value {
      i: 0
    }
  }
}
node {
  name: "encoder/cell_0/bidirectional_rnn/fw/multi_rnn_cell/cell_0/lstm_cell/kernel/Initializer/random_uniform/sub"
  op: "Sub"
  input: "encoder/cell_0/bidirectional_rnn/fw/multi_rnn_cell/cell_0/lstm_cell/kernel/Initializer/random_uniform/max"
  input: "encoder/cell_0/bidirectional_rnn/fw/multi_rnn_cell/cell_0/lstm_cell/kernel/Initializer/random_uniform/min"
  attr {
    key: "T"
    value {
      type: DT_FLOAT
    }
  }
  attr {
    key: "_class"
    value {
      list {
        s: "loc:@encoder/cell_0/bidirectional_rnn/fw/multi_rnn_cell/cell_0/lstm_cell/kernel"
      }
    }
  }
  attr {
    key: "_output_shapes"
    value {
      list {
        shape {
        }
      }
    }
  }
}
node {
  name: "encoder/cell_0/bidirectional_rnn/fw/multi_rnn_cell/cell_0/lstm_cell/kernel/Initializer/random_uniform/mul"
  op: "Mul"
  input: "encoder/cell_0/bidirectional_rnn/fw/multi_rnn_cell/cell_0/lstm_cell/kernel/Initializer/random_uniform/RandomUniform"
  input: "encoder/cell_0/bidirectional_rnn/fw/multi_rnn_cell/cell_0/lstm_cell/kernel/Initializer/random_uniform/sub"
  attr {
    key: "T"
    value {
      type: DT_FLOAT
    }
  }
  attr {
    key: "_class"
    value {
      list {
        s: "loc:@encoder/cell_0/bidirectional_rnn/fw/multi_rnn_cell/cell_0/lstm_cell/kernel"
      }
    }
  }
  attr {
    key: "_output_shapes"
    value {
      list {
        shape {
          dim {
            size: 602
          }
          dim {
            size: 2048
          }
        }
      }
    }
  }
}
node {
  name: "encoder/cell_0/bidirectional_rnn/fw/multi_rnn_cell/cell_0/lstm_cell/kernel/Initializer/random_uniform"
  op: "AddV2"
  input: "encoder/cell_0/bidirectional_rnn/fw/multi_rnn_cell/cell_0/lstm_cell/kernel/Initializer/random_uniform/mul"
  input: "encoder/cell_0/bidirectional_rnn/fw/multi_rnn_cell/cell_0/lstm_cell/kernel/Initializer/random_uniform/min"
  attr {
    key: "T"
    value {
      type: DT_FLOAT
    }
  }
  attr {
    key: "_class"
    value {
      list {
        s: "loc:@encoder/cell_0/bidirectional_rnn/fw/multi_rnn_cell/cell_0/lstm_cell/kernel"
      }
    }
  }
  attr {
    key: "_output_shapes"
    value {
      list {
        shape {
          dim {
            size: 602
          }
          dim {
            size: 2048
          }
        }
      }
    }
  }
}
node {
  name: "encoder/cell_0/bidirectional_rnn/fw/multi_rnn_cell/cell_0/lstm_cell/kernel"
  op: "VariableV2"
  attr {
    key: "_class"
    value {
      list {
        s: "loc:@encoder/cell_0/bidirectional_rnn/fw/multi_rnn_cell/cell_0/lstm_cell/kernel"
      }
    }
  }
  attr {
    key: "_output_shapes"
    value {
      list {
        shape {
          dim {
            size: 602
          }
          dim {
            size: 2048
          }
        }
      }
    }
  }
  attr {
    key: "container"
    value {
      s: ""
    }
  }
  attr {
    key: "dtype"
    value {
      type: DT_FLOAT
    }
  }
  attr {
    key: "shape"
    value {
      shape {
        dim {
          size: 602
        }
        dim {
          size: 2048
        }
      }
    }
  }
  attr {
    key: "shared_name"
    value {
      s: ""
    }
  }
}
node {
  name: "encoder/cell_0/bidirectional_rnn/fw/multi_rnn_cell/cell_0/lstm_cell/kernel/Assign"
  op: "Assign"
  input: "encoder/cell_0/bidirectional_rnn/fw/multi_rnn_cell/cell_0/lstm_cell/kernel"
  input: "encoder/cell_0/bidirectional_rnn/fw/multi_rnn_cell/cell_0/lstm_cell/kernel/Initializer/random_uniform"
  attr {
    key: "T"
    value {
      type: DT_FLOAT
    }
  }
  attr {
    key: "_class"
    value {
      list {
        s: "loc:@encoder/cell_0/bidirectional_rnn/fw/multi_rnn_cell/cell_0/lstm_cell/kernel"
      }
    }
  }
  attr {
    key: "_output_shapes"
    value {
      list {
        shape {
          dim {
            size: 602
          }
          dim {
            size: 2048
          }
        }
      }
    }
  }
  attr {
    key: "use_locking"
    value {
      b: true
    }
  }
  attr {
    key: "validate_shape"
    value {
      b: true
    }
  }
}
node {
  name: "encoder/cell_0/bidirectional_rnn/fw/multi_rnn_cell/cell_0/lstm_cell/kernel/read"
  op: "Identity"
  input: "encoder/cell_0/bidirectional_rnn/fw/multi_rnn_cell/cell_0/lstm_cell/kernel"
  attr {
    key: "T"
    value {
      type: DT_FLOAT
    }
  }
  attr {
    key: "_output_shapes"
    value {
      list {
        shape {
          dim {
            size: 602
          }
          dim {
            size: 2048
          }
        }
      }
    }
  }
}
node {
  name: "encoder/cell_0/bidirectional_rnn/fw/multi_rnn_cell/cell_0/lstm_cell/bias/Initializer/Const"
  op: "Const"
  attr {
    key: "_class"
    value {
      list {
        s: "loc:@encoder/cell_0/bidirectional_rnn/fw/multi_rnn_cell/cell_0/lstm_cell/bias"
      }
    }
  }
  attr {
    key: "_output_shapes"
    value {
      list {
        shape {
          dim {
            size: 2048
          }
        }
      }
    }
  }
  attr {
    key: "dtype"
    value {
      type: DT_FLOAT
    }
  }
  attr {
    key: "value"
    value {
      tensor {
        dtype: DT_FLOAT
        tensor_shape {
          dim {
            size: 2048
          }
        }
        float_val: 0.0
      }
    }
  }
}
node {
  name: "encoder/cell_0/bidirectional_rnn/fw/multi_rnn_cell/cell_0/lstm_cell/bias"
  op: "VariableV2"
  attr {
    key: "_class"
    value {
      list {
        s: "loc:@encoder/cell_0/bidirectional_rnn/fw/multi_rnn_cell/cell_0/lstm_cell/bias"
      }
    }
  }
  attr {
    key: "_output_shapes"
    value {
      list {
        shape {
          dim {
            size: 2048
          }
        }
      }
    }
  }
  attr {
    key: "container"
    value {
      s: ""
    }
  }
  attr {
    key: "dtype"
    value {
      type: DT_FLOAT
    }
  }
  attr {
    key: "shape"
    value {
      shape {
        dim {
          size: 2048
        }
      }
    }
  }
  attr {
    key: "shared_name"
    value {
      s: ""
    }
  }
}
node {
  name: "encoder/cell_0/bidirectional_rnn/fw/multi_rnn_cell/cell_0/lstm_cell/bias/Assign"
  op: "Assign"
  input: "encoder/cell_0/bidirectional_rnn/fw/multi_rnn_cell/cell_0/lstm_cell/bias"
  input: "encoder/cell_0/bidirectional_rnn/fw/multi_rnn_cell/cell_0/lstm_cell/bias/Initializer/Const"
  attr {
    key: "T"
    value {
      type: DT_FLOAT
    }
  }
  attr {
    key: "_class"
    value {
      list {
        s: "loc:@encoder/cell_0/bidirectional_rnn/fw/multi_rnn_cell/cell_0/lstm_cell/bias"
      }
    }
  }
  attr {
    key: "_output_shapes"
    value {
      list {
        shape {
          dim {
            size: 2048
          }
        }
      }
    }
  }
  attr {
    key: "use_locking"
    value {
      b: true
    }
  }
  attr {
    key: "validate_shape"
    value {
      b: true
    }
  }
}
node {
  name: "encoder/cell_0/bidirectional_rnn/fw/multi_rnn_cell/cell_0/lstm_cell/bias/read"
  op: "Identity"
  input: "encoder/cell_0/bidirectional_rnn/fw/multi_rnn_cell/cell_0/lstm_cell/bias"
  attr {
    key: "T"
    value {
      type: DT_FLOAT
    }
  }
  attr {
    key: "_output_shapes"
    value {
      list {
        shape {
          dim {
            size: 2048
          }
        }
      }
    }
  }
}
node {
  name: "encoder/cell_0/bidirectional_rnn/fw/fw/while/fw/multi_rnn_cell/cell_0/lstm_cell/zeros"
  op: "Const"
  input: "^encoder/cell_0/bidirectional_rnn/fw/fw/while/Identity"
  attr {
    key: "_output_shapes"
    value {
      list {
        shape {
          dim {
            size: 512
          }
        }
      }
    }
  }
  attr {
    key: "dtype"
    value {
      type: DT_FLOAT
    }
  }
  attr {
    key: "value"
    value {
      tensor {
        dtype: DT_FLOAT
        tensor_shape {
          dim {
            size: 512
          }
        }
        float_val: 0.0
      }
    }
  }
}
node {
  name: "encoder/cell_0/bidirectional_rnn/fw/fw/while/fw/multi_rnn_cell/cell_0/lstm_cell/LSTMBlockCell"
  op: "LSTMBlockCell"
  input: "encoder/cell_0/bidirectional_rnn/fw/fw/while/TensorArrayReadV3"
  input: "encoder/cell_0/bidirectional_rnn/fw/fw/while/Identity_3"
  input: "encoder/cell_0/bidirectional_rnn/fw/fw/while/Identity_4"
  input: "encoder/cell_0/bidirectional_rnn/fw/fw/while/fw/multi_rnn_cell/cell_0/lstm_cell/LSTMBlockCell/Enter"
  input: "encoder/cell_0/bidirectional_rnn/fw/fw/while/fw/multi_rnn_cell/cell_0/lstm_cell/zeros"
  input: "encoder/cell_0/bidirectional_rnn/fw/fw/while/fw/multi_rnn_cell/cell_0/lstm_cell/zeros"
  input: "encoder/cell_0/bidirectional_rnn/fw/fw/while/fw/multi_rnn_cell/cell_0/lstm_cell/zeros"
  input: "encoder/cell_0/bidirectional_rnn/fw/fw/while/fw/multi_rnn_cell/cell_0/lstm_cell/LSTMBlockCell/Enter_1"
  attr {
    key: "T"
    value {
      type: DT_FLOAT
    }
  }
  attr {
    key: "_output_shapes"
    value {
      list {
        shape {
          dim {
            size: 32
          }
          dim {
            size: 512
          }
        }
        shape {
          dim {
            size: 32
          }
          dim {
            size: 512
          }
        }
        shape {
          dim {
            size: 32
          }
          dim {
            size: 512
          }
        }
        shape {
          dim {
            size: 32
          }
          dim {
            size: 512
          }
        }
        shape {
          dim {
            size: 32
          }
          dim {
            size: 512
          }
        }
        shape {
          dim {
            size: 32
          }
          dim {
            size: 512
          }
        }
        shape {
          dim {
            size: 32
          }
          dim {
            size: 512
          }
        }
      }
    }
  }
  attr {
    key: "cell_clip"
    value {
      f: -1.0
    }
  }
  attr {
    key: "forget_bias"
    value {
      f: 1.0
    }
  }
  attr {
    key: "use_peephole"
    value {
      b: false
    }
  }
}
node {
  name: "encoder/cell_0/bidirectional_rnn/fw/fw/while/fw/multi_rnn_cell/cell_0/lstm_cell/LSTMBlockCell/Enter"
  op: "Enter"
  input: "encoder/cell_0/bidirectional_rnn/fw/multi_rnn_cell/cell_0/lstm_cell/kernel/read"
  attr {
    key: "T"
    value {
      type: DT_FLOAT
    }
  }
  attr {
    key: "_output_shapes"
    value {
      list {
        shape {
          dim {
            size: 602
          }
          dim {
            size: 2048
          }
        }
      }
    }
  }
  attr {
    key: "frame_name"
    value {
      s: "encoder/cell_0/bidirectional_rnn/fw/fw/while/while_context"
    }
  }
  attr {
    key: "is_constant"
    value {
      b: true
    }
  }
  attr {
    key: "parallel_iterations"
    value {
      i: 32
    }
  }
}
node {
  name: "encoder/cell_0/bidirectional_rnn/fw/fw/while/fw/multi_rnn_cell/cell_0/lstm_cell/LSTMBlockCell/Enter_1"
  op: "Enter"
  input: "encoder/cell_0/bidirectional_rnn/fw/multi_rnn_cell/cell_0/lstm_cell/bias/read"
  attr {
    key: "T"
    value {
      type: DT_FLOAT
    }
  }
  attr {
    key: "_output_shapes"
    value {
      list {
        shape {
          dim {
            size: 2048
          }
        }
      }
    }
  }
  attr {
    key: "frame_name"
    value {
      s: "encoder/cell_0/bidirectional_rnn/fw/fw/while/while_context"
    }
  }
  attr {
    key: "is_constant"
    value {
      b: true
    }
  }
  attr {
    key: "parallel_iterations"
    value {
      i: 32
    }
  }
}
node {
  name: "encoder/cell_0/bidirectional_rnn/fw/fw/while/Select"
  op: "Select"
  input: "encoder/cell_0/bidirectional_rnn/fw/fw/while/GreaterEqual"
  input: "encoder/cell_0/bidirectional_rnn/fw/fw/while/Select/Enter"
  input: "encoder/cell_0/bidirectional_rnn/fw/fw/while/fw/multi_rnn_cell/cell_0/lstm_cell/LSTMBlockCell:6"
  attr {
    key: "T"
    value {
      type: DT_FLOAT
    }
  }
  attr {
    key: "_class"
    value {
      list {
        s: "loc:@encoder/cell_0/bidirectional_rnn/fw/fw/while/fw/multi_rnn_cell/cell_0/lstm_cell/LSTMBlockCell"
      }
    }
  }
  attr {
    key: "_output_shapes"
    value {
      list {
        shape {
          dim {
            size: 32
          }
          dim {
            size: 512
          }
        }
      }
    }
  }
}
node {
  name: "encoder/cell_0/bidirectional_rnn/fw/fw/while/Select/Enter"
  op: "Enter"
  input: "encoder/cell_0/bidirectional_rnn/fw/fw/zeros"
  attr {
    key: "T"
    value {
      type: DT_FLOAT
    }
  }
  attr {
    key: "_class"
    value {
      list {
        s: "loc:@encoder/cell_0/bidirectional_rnn/fw/fw/while/fw/multi_rnn_cell/cell_0/lstm_cell/LSTMBlockCell"
      }
    }
  }
  attr {
    key: "_output_shapes"
    value {
      list {
        shape {
          dim {
            size: 32
          }
          dim {
            size: 512
          }
        }
      }
    }
  }
  attr {
    key: "frame_name"
    value {
      s: "encoder/cell_0/bidirectional_rnn/fw/fw/while/while_context"
    }
  }
  attr {
    key: "is_constant"
    value {
      b: true
    }
  }
  attr {
    key: "parallel_iterations"
    value {
      i: 32
    }
  }
}
node {
  name: "encoder/cell_0/bidirectional_rnn/fw/fw/while/Select_1"
  op: "Select"
  input: "encoder/cell_0/bidirectional_rnn/fw/fw/while/GreaterEqual"
  input: "encoder/cell_0/bidirectional_rnn/fw/fw/while/Identity_3"
  input: "encoder/cell_0/bidirectional_rnn/fw/fw/while/fw/multi_rnn_cell/cell_0/lstm_cell/LSTMBlockCell:1"
  attr {
    key: "T"
    value {
      type: DT_FLOAT
    }
  }
  attr {
    key: "_class"
    value {
      list {
        s: "loc:@encoder/cell_0/bidirectional_rnn/fw/fw/while/fw/multi_rnn_cell/cell_0/lstm_cell/LSTMBlockCell"
      }
    }
  }
  attr {
    key: "_output_shapes"
    value {
      list {
        shape {
          dim {
            size: 32
          }
          dim {
            size: 512
          }
        }
      }
    }
  }
}
node {
  name: "encoder/cell_0/bidirectional_rnn/fw/fw/while/Select_2"
  op: "Select"
  input: "encoder/cell_0/bidirectional_rnn/fw/fw/while/GreaterEqual"
  input: "encoder/cell_0/bidirectional_rnn/fw/fw/while/Identity_4"
  input: "encoder/cell_0/bidirectional_rnn/fw/fw/while/fw/multi_rnn_cell/cell_0/lstm_cell/LSTMBlockCell:6"
  attr {
    key: "T"
    value {
      type: DT_FLOAT
    }
  }
  attr {
    key: "_class"
    value {
      list {
        s: "loc:@encoder/cell_0/bidirectional_rnn/fw/fw/while/fw/multi_rnn_cell/cell_0/lstm_cell/LSTMBlockCell"
      }
    }
  }
  attr {
    key: "_output_shapes"
    value {
      list {
        shape {
          dim {
            size: 32
          }
          dim {
            size: 512
          }
        }
      }
    }
  }
}
node {
  name: "encoder/cell_0/bidirectional_rnn/fw/fw/while/TensorArrayWrite/TensorArrayWriteV3"
  op: "TensorArrayWriteV3"
  input: "encoder/cell_0/bidirectional_rnn/fw/fw/while/TensorArrayWrite/TensorArrayWriteV3/Enter"
  input: "encoder/cell_0/bidirectional_rnn/fw/fw/while/Identity_1"
  input: "encoder/cell_0/bidirectional_rnn/fw/fw/while/Select"
  input: "encoder/cell_0/bidirectional_rnn/fw/fw/while/Identity_2"
  attr {
    key: "T"
    value {
      type: DT_FLOAT
    }
  }
  attr {
    key: "_class"
    value {
      list {
        s: "loc:@encoder/cell_0/bidirectional_rnn/fw/fw/while/fw/multi_rnn_cell/cell_0/lstm_cell/LSTMBlockCell"
      }
    }
  }
  attr {
    key: "_output_shapes"
    value {
      list {
        shape {
        }
      }
    }
  }
}
node {
  name: "encoder/cell_0/bidirectional_rnn/fw/fw/while/TensorArrayWrite/TensorArrayWriteV3/Enter"
  op: "Enter"
  input: "encoder/cell_0/bidirectional_rnn/fw/fw/TensorArray"
  attr {
    key: "T"
    value {
      type: DT_RESOURCE
    }
  }
  attr {
    key: "_class"
    value {
      list {
        s: "loc:@encoder/cell_0/bidirectional_rnn/fw/fw/while/fw/multi_rnn_cell/cell_0/lstm_cell/LSTMBlockCell"
      }
    }
  }
  attr {
    key: "_output_shapes"
    value {
      list {
        shape {
          dim {
            size: 2
          }
        }
      }
    }
  }
  attr {
    key: "frame_name"
    value {
      s: "encoder/cell_0/bidirectional_rnn/fw/fw/while/while_context"
    }
  }
  attr {
    key: "is_constant"
    value {
      b: true
    }
  }
  attr {
    key: "parallel_iterations"
    value {
      i: 32
    }
  }
}
node {
  name: "encoder/cell_0/bidirectional_rnn/fw/fw/while/add_1/y"
  op: "Const"
  input: "^encoder/cell_0/bidirectional_rnn/fw/fw/while/Identity"
  attr {
    key: "_output_shapes"
    value {
      list {
        shape {
        }
      }
    }
  }
  attr {
    key: "dtype"
    value {
      type: DT_INT32
    }
  }
  attr {
    key: "value"
    value {
      tensor {
        dtype: DT_INT32
        tensor_shape {
        }
        int_val: 1
      }
    }
  }
}
node {
  name: "encoder/cell_0/bidirectional_rnn/fw/fw/while/add_1"
  op: "AddV2"
  input: "encoder/cell_0/bidirectional_rnn/fw/fw/while/Identity_1"
  input: "encoder/cell_0/bidirectional_rnn/fw/fw/while/add_1/y"
  attr {
    key: "T"
    value {
      type: DT_INT32
    }
  }
  attr {
    key: "_output_shapes"
    value {
      list {
        shape {
        }
      }
    }
  }
}
node {
  name: "encoder/cell_0/bidirectional_rnn/fw/fw/while/NextIteration"
  op: "NextIteration"
  input: "encoder/cell_0/bidirectional_rnn/fw/fw/while/add"
  attr {
    key: "T"
    value {
      type: DT_INT32
    }
  }
  attr {
    key: "_output_shapes"
    value {
      list {
        shape {
        }
      }
    }
  }
}
node {
  name: "encoder/cell_0/bidirectional_rnn/fw/fw/while/NextIteration_1"
  op: "NextIteration"
  input: "encoder/cell_0/bidirectional_rnn/fw/fw/while/add_1"
  attr {
    key: "T"
    value {
      type: DT_INT32
    }
  }
  attr {
    key: "_output_shapes"
    value {
      list {
        shape {
        }
      }
    }
  }
}
node {
  name: "encoder/cell_0/bidirectional_rnn/fw/fw/while/NextIteration_2"
  op: "NextIteration"
  input: "encoder/cell_0/bidirectional_rnn/fw/fw/while/TensorArrayWrite/TensorArrayWriteV3"
  attr {
    key: "T"
    value {
      type: DT_FLOAT
    }
  }
  attr {
    key: "_output_shapes"
    value {
      list {
        shape {
        }
      }
    }
  }
}
node {
  name: "encoder/cell_0/bidirectional_rnn/fw/fw/while/NextIteration_3"
  op: "NextIteration"
  input: "encoder/cell_0/bidirectional_rnn/fw/fw/while/Select_1"
  attr {
    key: "T"
    value {
      type: DT_FLOAT
    }
  }
  attr {
    key: "_output_shapes"
    value {
      list {
        shape {
          dim {
            size: 32
          }
          dim {
            size: 512
          }
        }
      }
    }
  }
}
node {
  name: "encoder/cell_0/bidirectional_rnn/fw/fw/while/NextIteration_4"
  op: "NextIteration"
  input: "encoder/cell_0/bidirectional_rnn/fw/fw/while/Select_2"
  attr {
    key: "T"
    value {
      type: DT_FLOAT
    }
  }
  attr {
    key: "_output_shapes"
    value {
      list {
        shape {
          dim {
            size: 32
          }
          dim {
            size: 512
          }
        }
      }
    }
  }
}
node {
  name: "encoder/cell_0/bidirectional_rnn/fw/fw/while/Exit"
  op: "Exit"
  input: "encoder/cell_0/bidirectional_rnn/fw/fw/while/Switch"
  attr {
    key: "T"
    value {
      type: DT_INT32
    }
  }
  attr {
    key: "_output_shapes"
    value {
      list {
        shape {
        }
      }
    }
  }
}
node {
  name: "encoder/cell_0/bidirectional_rnn/fw/fw/while/Exit_1"
  op: "Exit"
  input: "encoder/cell_0/bidirectional_rnn/fw/fw/while/Switch_1"
  attr {
    key: "T"
    value {
      type: DT_INT32
    }
  }
  attr {
    key: "_output_shapes"
    value {
      list {
        shape {
        }
      }
    }
  }
}
node {
  name: "encoder/cell_0/bidirectional_rnn/fw/fw/while/Exit_2"
  op: "Exit"
  input: "encoder/cell_0/bidirectional_rnn/fw/fw/while/Switch_2"
  attr {
    key: "T"
    value {
      type: DT_FLOAT
    }
  }
  attr {
    key: "_output_shapes"
    value {
      list {
        shape {
        }
      }
    }
  }
}
node {
  name: "encoder/cell_0/bidirectional_rnn/fw/fw/while/Exit_3"
  op: "Exit"
  input: "encoder/cell_0/bidirectional_rnn/fw/fw/while/Switch_3"
  attr {
    key: "T"
    value {
      type: DT_FLOAT
    }
  }
  attr {
    key: "_output_shapes"
    value {
      list {
        shape {
          dim {
            size: 32
          }
          dim {
            size: 512
          }
        }
      }
    }
  }
}
node {
  name: "encoder/cell_0/bidirectional_rnn/fw/fw/while/Exit_4"
  op: "Exit"
  input: "encoder/cell_0/bidirectional_rnn/fw/fw/while/Switch_4"
  attr {
    key: "T"
    value {
      type: DT_FLOAT
    }
  }
  attr {
    key: "_output_shapes"
    value {
      list {
        shape {
          dim {
            size: 32
          }
          dim {
            size: 512
          }
        }
      }
    }
  }
}
node {
  name: "encoder/cell_0/bidirectional_rnn/fw/fw/TensorArrayStack/range/start"
  op: "Const"
  attr {
    key: "_class"
    value {
      list {
        s: "loc:@encoder/cell_0/bidirectional_rnn/fw/fw/TensorArray"
      }
    }
  }
  attr {
    key: "_output_shapes"
…
        value {
          func {
            name: "__inference_Dataset_map__remove_pad_fn_140"
            attr {
              key: "_tf_data_function"
              value {
                b: true
              }
            }
          }
        }
      }
      attr {
        key: "metadata"
        value {
          s: ""
        }
      }
      attr {
        key: "output_shapes"
        value {
          list {
            shape {
              dim {
                size: -1
              }
              dim {
                size: 90
              }
            }
            shape {
              dim {
                size: -1
              }
              dim {
                size: 90
              }
            }
            shape {
              dim {
                size: -1
              }
              dim {
              }
            }
            shape {
            }
          }
        }
      }
      attr {
        key: "output_types"
        value {
          list {
            type: DT_BOOL
            type: DT_BOOL
            type: DT_BOOL
            type: DT_INT32
          }
        }
      }
      attr {
        key: "preserve_cardinality"
        value {
          b: false
        }
      }
      attr {
        key: "use_inter_op_parallelism"
        value {
          b: true
        }
      }
      experimental_type {
        type_id: TFT_PRODUCT
        args {
          type_id: TFT_DATASET
          args {
            type_id: TFT_PRODUCT
            args {
              type_id: TFT_TENSOR
              args {
                type_id: TFT_BOOL
              }
            }
            args {
              type_id: TFT_TENSOR
              args {
                type_id: TFT_BOOL
              }
            }
            args {
              type_id: TFT_TENSOR
              args {
                type_id: TFT_BOOL
              }
            }
            args {
              type_id: TFT_TENSOR
              args {
                type_id: TFT_INT32
              }
            }
          }
        }
      }
    }
    node_def {
      name: "filename"
      op: "Const"
      attr {
        key: "dtype"
        value {
          type: DT_STRING
        }
      }
      attr {
        key: "value"
        value {
          tensor {
            dtype: DT_STRING
            tensor_shape {
            }
            string_val: ""
          }
        }
      }
    }
    node_def {
      name: "CacheDataset"
      op: "CacheDataset"
      input: "ParallelMapDatasetV2_2:handle:0"
      input: "filename:output:0"
      attr {
        key: "metadata"
        value {
          s: ""
        }
      }
      attr {
        key: "output_shapes"
        value {
          list {
            shape {
              dim {
                size: -1
              }
              dim {
                size: 90
              }
            }
            shape {
              dim {
                size: -1
              }
              dim {
                size: 90
              }
            }
            shape {
              dim {
                size: -1
              }
              dim {
              }
            }
            shape {
            }
          }
        }
      }
      attr {
        key: "output_types"
        value {
          list {
            type: DT_BOOL
            type: DT_BOOL
            type: DT_BOOL
            type: DT_INT32
          }
        }
      }
      experimental_type {
        type_id: TFT_PRODUCT
        args {
          type_id: TFT_DATASET
          args {
            type_id: TFT_PRODUCT
            args {
              type_id: TFT_TENSOR
              args {
                type_id: TFT_BOOL
              }
            }
            args {
              type_id: TFT_TENSOR
              args {
                type_id: TFT_BOOL
              }
            }
            args {
              type_id: TFT_TENSOR
              args {
                type_id: TFT_BOOL
              }
            }
            args {
              type_id: TFT_TENSOR
              args {
                type_id: TFT_INT32
              }
            }
          }
        }
      }
    }
    node_def {
      name: "buffer_size"
      op: "Const"
      attr {
        key: "dtype"
        value {
          type: DT_INT64
        }
      }
      attr {
        key: "value"
        value {
          tensor {
            dtype: DT_INT64
            tensor_shape {
            }
            int64_val: 320
          }
        }
      }
    }
    node_def {
      name: "seed"
      op: "Const"
      attr {
        key: "dtype"
        value {
          type: DT_INT64
        }
      }
      attr {
        key: "value"
        value {
          tensor {
            dtype: DT_INT64
            tensor_shape {
            }
            int64_val: 0
          }
        }
      }
    }
    node_def {
      name: "seed2"
      op: "Const"
      attr {
        key: "dtype"
        value {
          type: DT_INT64
        }
      }
      attr {
        key: "value"
        value {
          tensor {
            dtype: DT_INT64
            tensor_shape {
            }
            int64_val: 0
          }
        }
      }
    }
    node_def {
      name: "ShuffleDataset"
      op: "ShuffleDataset"
      input: "CacheDataset:handle:0"
      input: "buffer_size:output:0"
      input: "seed:output:0"
      input: "seed2:output:0"
      attr {
        key: "metadata"
        value {
          s: ""
        }
      }
      attr {
        key: "output_shapes"
        value {
          list {
            shape {
              dim {
                size: -1
              }
              dim {
                size: 90
              }
            }
            shape {
              dim {
                size: -1
              }
              dim {
                size: 90
              }
            }
            shape {
              dim {
                size: -1
              }
              dim {
              }
            }
            shape {
            }
          }
        }
      }
      attr {
        key: "output_types"
        value {
          list {
            type: DT_BOOL
            type: DT_BOOL
            type: DT_BOOL
            type: DT_INT32
          }
        }
      }
      attr {
        key: "reshuffle_each_iteration"
        value {
          b: true
        }
      }
      experimental_type {
        type_id: TFT_PRODUCT
        args {
          type_id: TFT_DATASET
          args {
            type_id: TFT_PRODUCT
            args {
              type_id: TFT_TENSOR
              args {
                type_id: TFT_BOOL
              }
            }
            args {
              type_id: TFT_TENSOR
              args {
                type_id: TFT_BOOL
              }
            }
            args {
              type_id: TFT_TENSOR
              args {
                type_id: TFT_BOOL
              }
            }
            args {
              type_id: TFT_TENSOR
              args {
                type_id: TFT_INT32
              }
            }
          }
        }
      }
    }
    node_def {
      name: "count"
      op: "Const"
      attr {
        key: "dtype"
        value {
          type: DT_INT64
        }
      }
      attr {
        key: "value"
        value {
          tensor {
            dtype: DT_INT64
            tensor_shape {
            }
            int64_val: -1
          }
        }
      }
    }
    node_def {
      name: "RepeatDataset"
      op: "RepeatDataset"
      input: "ShuffleDataset:handle:0"
      input: "count:output:0"
      attr {
        key: "metadata"
        value {
          s: ""
        }
      }
      attr {
        key: "output_shapes"
        value {
          list {
            shape {
              dim {
                size: -1
              }
              dim {
                size: 90
              }
            }
            shape {
              dim {
                size: -1
              }
              dim {
                size: 90
              }
            }
            shape {
              dim {
                size: -1
              }
              dim {
              }
            }
            shape {
            }
          }
        }
      }
      attr {
        key: "output_types"
        value {
          list {
            type: DT_BOOL
            type: DT_BOOL
            type: DT_BOOL
            type: DT_INT32
          }
        }
      }
      experimental_type {
        type_id: TFT_PRODUCT
        args {
          type_id: TFT_DATASET
          args {
            type_id: TFT_PRODUCT
            args {
              type_id: TFT_TENSOR
              args {
                type_id: TFT_BOOL
              }
            }
            args {
              type_id: TFT_TENSOR
              args {
                type_id: TFT_BOOL
              }
            }
            args {
              type_id: TFT_TENSOR
              args {
                type_id: TFT_BOOL
              }
            }
            args {
              type_id: TFT_TENSOR
              args {
                type_id: TFT_INT32
              }
            }
          }
        }
      }
    }
    node_def {
      name: "batch_size"
      op: "Const"
      attr {
        key: "dtype"
        value {
          type: DT_INT64
        }
      }
      attr {
        key: "value"
        value {
          tensor {
            dtype: DT_INT64
            tensor_shape {
            }
            int64_val: 32
          }
        }
      }
    }
    node_def {
      name: "Const"
      op: "Const"
      attr {
        key: "dtype"
        value {
          type: DT_INT64
        }
      }
      attr {
        key: "value"
        value {
          tensor {
            dtype: DT_INT64
            tensor_shape {
              dim {
                size: 2
              }
            }
            tensor_content: "\377\377\377\377\377\377\377\377Z\000\000\000\000\000\000\000"
          }
        }
      }
    }
    node_def {
      name: "Const_1"
      op: "Const"
      attr {
        key: "dtype"
        value {
          type: DT_INT64
        }
      }
      attr {
        key: "value"
        value {
          tensor {
            dtype: DT_INT64
            tensor_shape {
              dim {
                size: 2
              }
            }
            tensor_content: "\377\377\377\377\377\377\377\377Z\000\000\000\000\000\000\000"
          }
        }
      }
    }
    node_def {
      name: "Const_2"
      op: "Const"
      attr {
        key: "dtype"
        value {
          type: DT_INT64
        }
      }
      attr {
        key: "value"
        value {
          tensor {
            dtype: DT_INT64
            tensor_shape {
              dim {
                size: 2
              }
            }
            tensor_content: "\377\377\377\377\377\377\377\377\000\000\000\000\000\000\000\000"
          }
        }
      }
    }
    node_def {
      name: "Const_3"
      op: "Const"
      attr {
        key: "dtype"
        value {
          type: DT_INT64
        }
      }
      attr {
        key: "value"
        value {
          tensor {
            dtype: DT_INT64
            tensor_shape {
              dim {
              }
            }
          }
        }
      }
    }
    node_def {
      name: "padding_value"
      op: "Const"
      attr {
        key: "dtype"
        value {
          type: DT_BOOL
        }
      }
      attr {
        key: "value"
        value {
          tensor {
            dtype: DT_BOOL
            tensor_shape {
            }
            bool_val: false
          }
        }
      }
    }
    node_def {
      name: "padding_value_1"
      op: "Const"
      attr {
        key: "dtype"
        value {
          type: DT_BOOL
        }
      }
      attr {
        key: "value"
        value {
          tensor {
            dtype: DT_BOOL
            tensor_shape {
            }
            bool_val: false
          }
        }
      }
    }
    node_def {
      name: "padding_value_2"
      op: "Const"
      attr {
        key: "dtype"
        value {
          type: DT_BOOL
        }
      }
      attr {
        key: "value"
        value {
          tensor {
            dtype: DT_BOOL
            tensor_shape {
            }
            bool_val: false
          }
        }
      }
    }
    node_def {
      name: "padding_value_3"
      op: "Const"
      attr {
        key: "dtype"
        value {
          type: DT_INT32
        }
      }
      attr {
        key: "value"
        value {
          tensor {
            dtype: DT_INT32
            tensor_shape {
            }
            int_val: 0
          }
        }
      }
    }
    node_def {
      name: "drop_remainder"
      op: "Const"
      attr {
        key: "dtype"
        value {
          type: DT_BOOL
        }
      }
      attr {
        key: "value"
        value {
          tensor {
            dtype: DT_BOOL
            tensor_shape {
            }
            bool_val: true
          }
        }
      }
    }
    node_def {
      name: "PaddedBatchDatasetV2"
      op: "PaddedBatchDatasetV2"
      input: "RepeatDataset:handle:0"
      input: "batch_size:output:0"
      input: "Const:output:0"
      input: "Const_1:output:0"
      input: "Const_2:output:0"
      input: "Const_3:output:0"
      input: "padding_value:output:0"
      input: "padding_value_1:output:0"
      input: "padding_value_2:output:0"
      input: "padding_value_3:output:0"
      input: "drop_remainder:output:0"
      attr {
        key: "N"
        value {
          i: 4
        }
      }
      attr {
        key: "Toutput_types"
        value {
          list {
            type: DT_BOOL
            type: DT_BOOL
            type: DT_BOOL
            type: DT_INT32
          }
        }
      }
      attr {
        key: "metadata"
        value {
          s: ""
        }
      }
      attr {
        key: "output_shapes"
        value {
          list {
            shape {
              dim {
                size: 32
              }
              dim {
                size: -1
              }
              dim {
                size: 90
              }
            }
            shape {
              dim {
                size: 32
              }
              dim {
                size: -1
              }
              dim {
                size: 90
              }
            }
            shape {
              dim {
                size: 32
              }
              dim {
                size: -1
              }
              dim {
              }
            }
            shape {
              dim {
                size: 32
              }
            }
          }
        }
      }
      attr {
        key: "parallel_copy"
        value {
          b: false
        }
      }
      experimental_type {
        type_id: TFT_PRODUCT
        args {
          type_id: TFT_DATASET
          args {
            type_id: TFT_PRODUCT
            args {
              type_id: TFT_TENSOR
              args {
                type_id: TFT_BOOL
              }
            }
            args {
              type_id: TFT_TENSOR
              args {
                type_id: TFT_BOOL
              }
            }
            args {
              type_id: TFT_TENSOR
              args {
                type_id: TFT_BOOL
              }
            }
            args {
              type_id: TFT_TENSOR
              args {
                type_id: TFT_INT32
              }
            }
          }
        }
      }
    }
    node_def {
      name: "buffer_size_1"
      op: "Const"
      attr {
        key: "dtype"
        value {
          type: DT_INT64
        }
      }
      attr {
        key: "value"
        value {
          tensor {
            dtype: DT_INT64
            tensor_shape {
            }
            int64_val: -1
          }
        }
      }
    }
    node_def {
      name: "PrefetchDataset"
      op: "PrefetchDataset"
      input: "PaddedBatchDatasetV2:handle:0"
      input: "buffer_size_1:output:0"
      attr {
        key: "_class"
        value {
          list {
            s: "loc:@PaddedBatchDatasetV2"
          }
        }
      }
      attr {
        key: "buffer_size_min"
        value {
          i: 0
        }
      }
      attr {
        key: "legacy_autotune"
        value {
          b: true
        }
      }
      attr {
        key: "metadata"
        value {
          s: ""
        }
      }
      attr {
        key: "output_shapes"
        value {
          list {
            shape {
              dim {
                size: 32
              }
              dim {
                size: -1
              }
              dim {
                size: 90
              }
            }
            shape {
              dim {
                size: 32
              }
              dim {
                size: -1
              }
              dim {
                size: 90
              }
            }
            shape {
              dim {
                size: 32
              }
              dim {
                size: -1
              }
              dim {
              }
            }
            shape {
              dim {
                size: 32
              }
            }
          }
        }
      }
      attr {
        key: "output_types"
        value {
          list {
            type: DT_BOOL
            type: DT_BOOL
            type: DT_BOOL
            type: DT_INT32
          }
        }
      }
      attr {
        key: "slack_period"
        value {
          i: 0
        }
      }
      experimental_type {
        type_id: TFT_PRODUCT
        args {
          type_id: TFT_DATASET
          args {
            type_id: TFT_PRODUCT
            args {
              type_id: TFT_TENSOR
              args {
                type_id: TFT_BOOL
              }
            }
            args {
              type_id: TFT_TENSOR
              args {
                type_id: TFT_BOOL
              }
            }
            args {
              type_id: TFT_TENSOR
              args {
                type_id: TFT_BOOL
              }
            }
            args {
              type_id: TFT_TENSOR
              args {
                type_id: TFT_INT32
              }
            }
          }
        }
      }
    }
    ret {
      key: "prefetchdataset"
      value: "PrefetchDataset:handle:0"
    }
    attr {
      key: "_disable_call_shape_inference"
      value {
        b: true
      }
    }
  }
  function {
    signature {
      name: "__inference_Dataset_map_wrapper_101"
      input_arg {
        name: "args_0"
        type: DT_STRING
      }
      output_arg {
        name: "identity"
        type: DT_BOOL
      }
      output_arg {
        name: "identity_1"
        type: DT_BOOL
      }
      output_arg {
        name: "identity_2"
        type: DT_BOOL
      }
      output_arg {
        name: "identity_3"
        type: DT_INT32
      }
      is_stateful: true
      control_output: "convert_and_pad"
    }
    node_def {
      name: "convert_and_pad"
      op: "EagerPyFunc"
      input: "args_0"
      attr {
        key: "Tin"
        value {
          list {
            type: DT_STRING
          }
        }
      }
      attr {
        key: "Tout"
        value {
          list {
            type: DT_BOOL
            type: DT_BOOL
            type: DT_BOOL
            type: DT_INT32
          }
        }
      }
      attr {
        key: "_output_shapes"
        value {
          list {
            shape {
              dim {
                size: -1
              }
              dim {
                size: -1
              }
              dim {
                size: 90
              }
            }
            shape {
              dim {
                size: -1
              }
              dim {
                size: -1
              }
              dim {
                size: 90
              }
            }
            shape {
              dim {
                size: -1
              }
              dim {
                size: -1
              }
              dim {
              }
            }
            shape {
              dim {
                size: -1
              }
            }
          }
        }
      }
      attr {
        key: "is_async"
        value {
          b: false
        }
      }
      attr {
        key: "token"
        value {
          s: "pyfunc_1"
        }
      }
    }
    node_def {
      name: "Identity"
      op: "Identity"
      input: "convert_and_pad:output:0"
      input: "^NoOp"
      attr {
        key: "T"
        value {
          type: DT_BOOL
        }
      }
      attr {
        key: "_output_shapes"
        value {
          list {
            shape {
              dim {
                size: -1
              }
              dim {
                size: -1
              }
              dim {
                size: 90
              }
            }
          }
        }
      }
    }
    node_def {
      name: "Identity_1"
      op: "Identity"
      input: "convert_and_pad:output:1"
      input: "^NoOp"
      attr {
        key: "T"
        value {
          type: DT_BOOL
        }
      }
      attr {
        key: "_output_shapes"
        value {
          list {
            shape {
              dim {
                size: -1
              }
              dim {
                size: -1
              }
              dim {
                size: 90
              }
            }
          }
        }
      }
    }
    node_def {
      name: "Identity_2"
      op: "Identity"
      input: "convert_and_pad:output:2"
      input: "^NoOp"
      attr {
        key: "T"
        value {
          type: DT_BOOL
        }
      }
      attr {
        key: "_output_shapes"
        value {
          list {
            shape {
              dim {
                size: -1
              }
              dim {
                size: -1
              }
              dim {
              }
            }
          }
        }
      }
    }
    node_def {
      name: "Identity_3"
      op: "Identity"
      input: "convert_and_pad:output:3"
      input: "^NoOp"
      attr {
        key: "T"
        value {
          type: DT_INT32
        }
      }
      attr {
        key: "_output_shapes"
        value {
          list {
            shape {
              dim {
                size: -1
              }
            }
          }
        }
      }
    }
    node_def {
      name: "NoOp"
      op: "NoOp"
      input: "^convert_and_pad"
      attr {
        key: "_acd_function_control_output"
        value {
          b: true
        }
      }
      attr {
        key: "_output_shapes"
        value {
          list {
          }
        }
      }
    }
    ret {
      key: "identity"
      value: "Identity:output:0"
    }
    ret {
      key: "identity_1"
      value: "Identity_1:output:0"
    }
    ret {
      key: "identity_2"
      value: "Identity_2:output:0"
    }
    ret {
      key: "identity_3"
      value: "Identity_3:output:0"
    }
    attr {
      key: "_input_shapes"
      value {
        list {
          shape {
          }
        }
      }
    }
    attr {
      key: "_tf_data_function"
      value {
        b: true
      }
    }
    control_ret {
      key: "convert_and_pad"
      value: "convert_and_pad"
    }
    arg_attr {
      value {
        attr {
          key: "_output_shapes"
          value {
            list {
              shape {
              }
            }
          }
        }
        attr {
          key: "_user_specified_name"
          value {
            s: "args_0"
          }
        }
      }
    }
  }
  function {
    signature {
      name: "__inference_Dataset_map_normalize_113"
      input_arg {
        name: "args_0"
        type: DT_BOOL
      }
      input_arg {
        name: "args_1"
        type: DT_BOOL
      }
      input_arg {
        name: "args_2"
        type: DT_BOOL
      }
      input_arg {
        name: "args_3"
        type: DT_INT32
      }
      output_arg {
        name: "identity"
        type: DT_BOOL
      }
      output_arg {
        name: "identity_1"
        type: DT_BOOL
      }
      output_arg {
        name: "identity_2"
        type: DT_BOOL
      }
      output_arg {
        name: "identity_3"
        type: DT_INT32
      }
    }
    node_def {
      name: "Identity"
      op: "Identity"
      input: "args_0"
      attr {
        key: "T"
        value {
          type: DT_BOOL
        }
      }
      attr {
        key: "_output_shapes"
        value {
          list {
            shape {
              dim {
                size: -1
              }
              dim {
                size: -1
              }
              dim {
                size: 90
              }
            }
          }
        }
      }
    }
    node_def {
      name: "Identity_1"
      op: "Identity"
      input: "args_1"
      attr {
        key: "T"
        value {
          type: DT_BOOL
        }
      }
      attr {
        key: "_output_shapes"
        value {
          list {
            shape {
              dim {
                size: -1
              }
              dim {
                size: -1
              }
              dim {
                size: 90
              }
            }
          }
        }
      }
    }
    node_def {
      name: "Identity_2"
      op: "Identity"
      input: "args_2"
      attr {
        key: "T"
        value {
          type: DT_BOOL
        }
      }
      attr {
        key: "_output_shapes"
        value {
          list {
            shape {
              dim {
                size: -1
              }
              dim {
                size: -1
              }
              dim {
              }
            }
          }
        }
      }
    }
    node_def {
      name: "Identity_3"
      op: "Identity"
      input: "args_3"
      attr {
        key: "T"
        value {
          type: DT_INT32
        }
      }
      attr {
        key: "_output_shapes"
        value {
          list {
            shape {
              dim {
                size: -1
              }
            }
          }
        }
      }
    }
    ret {
      key: "identity"
      value: "Identity:output:0"
    }
    ret {
      key: "identity_1"
      value: "Identity_1:output:0"
    }
    ret {
      key: "identity_2"
      value: "Identity_2:output:0"
    }
    ret {
      key: "identity_3"
      value: "Identity_3:output:0"
    }
    attr {
      key: "_input_shapes"
      value {
        list {
          shape {
            dim {
              size: -1
            }
            dim {
              size: -1
            }
            dim {
              size: 90
            }
          }
          shape {
            dim {
              size: -1
            }
            dim {
              size: -1
            }
            dim {
              size: 90
            }
          }
          shape {
            dim {
              size: -1
            }
            dim {
              size: -1
            }
            dim {
            }
          }
          shape {
            dim {
              size: -1
            }
          }
        }
      }
    }
    attr {
      key: "_tf_data_function"
      value {
        b: true
      }
    }
    arg_attr {
      value {
        attr {
          key: "_output_shapes"
          value {
            list {
              shape {
                dim {
                  size: -1
                }
                dim {
                  size: -1
                }
                dim {
                  size: 90
                }
              }
            }
          }
        }
        attr {
          key: "_user_specified_name"
          value {
            s: "args_0"
          }
        }
      }
    }
    arg_attr {
      key: 1
      value {
        attr {
          key: "_output_shapes"
          value {
            list {
              shape {
                dim {
                  size: -1
                }
                dim {
                  size: -1
                }
                dim {
                  size: 90
                }
              }
            }
          }
        }
        attr {
          key: "_user_specified_name"
          value {
            s: "args_1"
          }
        }
      }
    }
    arg_attr {
      key: 2
      value {
        attr {
          key: "_output_shapes"
          value {
            list {
              shape {
                dim {
                  size: -1
                }
                dim {
                  size: -1
                }
                dim {
                }
              }
            }
          }
        }
        attr {
          key: "_user_specified_name"
          value {
            s: "args_2"
          }
        }
      }
    }
    arg_attr {
      key: 3
      value {
        attr {
          key: "_output_shapes"
          value {
            list {
              shape {
                dim {
                  size: -1
                }
              }
            }
          }
        }
        attr {
          key: "_user_specified_name"
          value {
            s: "args_3"
          }
        }
      }
    }
  }
  function {
    signature {
      name: "__inference_Dataset_map_NoteSequenceAugmenter.tf_augment_88"
      input_arg {
        name: "args_0"
        type: DT_STRING
      }
      output_arg {
        name: "identity"
        type: DT_STRING
      }
      is_stateful: true
      control_output: "augment"
    }
    node_def {
      name: "augment"
      op: "EagerPyFunc"
      input: "args_0"
      attr {
        key: "Tin"
        value {
          list {
            type: DT_STRING
          }
        }
      }
      attr {
        key: "Tout"
        value {
          list {
            type: DT_STRING
          }
        }
      }
      attr {
        key: "_output_shapes"
        value {
          list {
            shape {
            }
          }
        }
      }
      attr {
        key: "is_async"
        value {
          b: false
        }
      }
      attr {
        key: "token"
        value {
          s: "pyfunc_0"
        }
      }
    }
    node_def {
      name: "Identity"
      op: "Identity"
      input: "augment:output:0"
      input: "^NoOp"
      attr {
        key: "T"
        value {
          type: DT_STRING
        }
      }
      attr {
        key: "_output_shapes"
        value {
          list {
            shape {
            }
          }
        }
      }
    }
    node_def {
      name: "NoOp"
      op: "NoOp"
      input: "^augment"
      attr {
        key: "_acd_function_control_output"
        value {
          b: true
        }
      }
      attr {
        key: "_output_shapes"
        value {
          list {
          }
        }
      }
    }
    ret {
      key: "identity"
      value: "Identity:output:0"
    }
    attr {
      key: "_input_shapes"
      value {
        list {
          shape {
          }
        }
      }
    }
    attr {
      key: "_tf_data_function"
      value {
        b: true
      }
    }
    control_ret {
      key: "augment"
      value: "augment"
    }
    arg_attr {
      value {
        attr {
          key: "_output_shapes"
          value {
            list {
              shape {
              }
            }
          }
        }
        attr {
          key: "_user_specified_name"
          value {
            s: "args_0"
          }
        }
      }
    }
  }
  function {
    signature {
      name: "__inference_Dataset_map__remove_pad_fn_140"
      input_arg {
        name: "args_0"
        type: DT_BOOL
      }
      input_arg {
        name: "args_1"
        type: DT_BOOL
      }
      input_arg {
        name: "args_2"
        type: DT_BOOL
      }
      input_arg {
        name: "args_3"
        type: DT_INT32
      }
      output_arg {
        name: "identity"
        type: DT_BOOL
      }
      output_arg {
        name: "identity_1"
        type: DT_BOOL
      }
      output_arg {
        name: "identity_2"
        type: DT_BOOL
      }
      output_arg {
        name: "identity_3"
        type: DT_INT32
      }
    }
    node_def {
      name: "Const"
      op: "Const"
      attr {
        key: "_output_shapes"
        value {
          list {
            shape {
            }
          }
        }
      }
      attr {
        key: "dtype"
        value {
          type: DT_INT32
        }
      }
      attr {
        key: "value"
        value {
          tensor {
            dtype: DT_INT32
            tensor_shape {
            }
            int_val: 1
          }
        }
      }
    }
    node_def {
      name: "strided_slice/stack"
      op: "Const"
      attr {
        key: "_output_shapes"
        value {
          list {
            shape {
              dim {
                size: 1
              }
            }
          }
        }
      }
      attr {
        key: "dtype"
        value {
          type: DT_INT32
        }
      }
      attr {
        key: "value"
        value {
          tensor {
            dtype: DT_INT32
            tensor_shape {
              dim {
                size: 1
              }
            }
            int_val: 0
          }
        }
      }
    }
    node_def {
      name: "strided_slice/stack_1"
      op: "Pack"
      input: "args_3"
      attr {
        key: "N"
        value {
          i: 1
        }
      }
      attr {
        key: "T"
        value {
          type: DT_INT32
        }
      }
      attr {
        key: "_output_shapes"
        value {
          list {
            shape {
              dim {
                size: 1
              }
            }
          }
        }
      }
      attr {
        key: "axis"
        value {
          i: 0
        }
      }
    }
    node_def {
      name: "strided_slice/stack_2"
      op: "Pack"
      input: "Const:output:0"
      attr {
        key: "N"
        value {
          i: 1
        }
      }
      attr {
        key: "T"
        value {
          type: DT_INT32
        }
      }
      attr {
        key: "_output_shapes"
        value {
          list {
            shape {
              dim {
                size: 1
              }
            }
          }
        }
      }
      attr {
        key: "axis"
        value {
          i: 0
        }
      }
    }
    node_def {
      name: "strided_slice"
      op: "StridedSlice"
      input: "args_0"
      input: "strided_slice/stack:output:0"
      input: "strided_slice/stack_1:output:0"
      input: "strided_slice/stack_2:output:0"
      attr {
        key: "Index"
        value {
          type: DT_INT32
        }
      }
      attr {
        key: "T"
        value {
          type: DT_BOOL
        }
      }
      attr {
        key: "_output_shapes"
        value {
          list {
            shape {
              dim {
                size: -1
              }
              dim {
                size: 90
              }
            }
          }
        }
      }
      attr {
        key: "begin_mask"
        value {
          i: 0
        }
      }
      attr {
        key: "ellipsis_mask"
        value {
          i: 0
        }
      }
      attr {
        key: "end_mask"
        value {
          i: 0
        }
      }
      attr {
        key: "new_axis_mask"
        value {
          i: 0
        }
      }
      attr {
        key: "shrink_axis_mask"
        value {
          i: 0
        }
      }
    }
    node_def {
      name: "Const_1"
      op: "Const"
      attr {
        key: "_output_shapes"
        value {
          list {
            shape {
            }
          }
        }
      }
      attr {
        key: "dtype"
        value {
          type: DT_INT32
        }
      }
      attr {
        key: "value"
        value {
          tensor {
            dtype: DT_INT32
            tensor_shape {
            }
            int_val: 1
          }
        }
      }
    }
    node_def {
      name: "strided_slice_1/stack"
      op: "Const"
      attr {
        key: "_output_shapes"
        value {
          list {
            shape {
              dim {
                size: 1
              }
            }
          }
        }
      }
      attr {
        key: "dtype"
        value {
          type: DT_INT32
        }
      }
      attr {
        key: "value"
        value {
          tensor {
            dtype: DT_INT32
            tensor_shape {
              dim {
                size: 1
              }
            }
            int_val: 0
          }
        }
      }
    }
    node_def {
      name: "strided_slice_1/stack_1"
      op: "Pack"
      input: "args_3"
      attr {
        key: "N"
        value {
          i: 1
        }
      }
      attr {
        key: "T"
        value {
          type: DT_INT32
        }
      }
      attr {
        key: "_output_shapes"
        value {
          list {
            shape {
              dim {
                size: 1
              }
            }
          }
        }
      }
      attr {
        key: "axis"
        value {
          i: 0
        }
      }
    }
    node_def {
      name: "strided_slice_1/stack_2"
      op: "Pack"
      input: "Const_1:output:0"
      attr {
        key: "N"
        value {
          i: 1
        }
      }
      attr {
        key: "T"
        value {
          type: DT_INT32
        }
      }
      attr {
        key: "_output_shapes"
        value {
          list {
            shape {
              dim {
                size: 1
              }
            }
          }
        }
      }
      attr {
        key: "axis"
        value {
          i: 0
        }
      }
    }
    node_def {
      name: "strided_slice_1"
      op: "StridedSlice"
      input: "args_1"
      input: "strided_slice_1/stack:output:0"
      input: "strided_slice_1/stack_1:output:0"
      input: "strided_slice_1/stack_2:output:0"
      attr {
        key: "Index"
        value {
          type: DT_INT32
        }
      }
      attr {
        key: "T"
        value {
          type: DT_BOOL
        }
      }
      attr {
        key: "_output_shapes"
        value {
          list {
            shape {
              dim {
                size: -1
              }
              dim {
                size: 90
              }
            }
          }
        }
      }
      attr {
        key: "begin_mask"
        value {
          i: 0
        }
      }
      attr {
        key: "ellipsis_mask"
        value {
          i: 0
        }
      }
      attr {
        key: "end_mask"
        value {
          i: 0
        }
      }
      attr {
        key: "new_axis_mask"
        value {
          i: 0
        }
      }
      attr {
        key: "shrink_axis_mask"
        value {
          i: 0
        }
      }
    }
    node_def {
      name: "Const_2"
      op: "Const"
      attr {
        key: "_output_shapes"
        value {
          list {
            shape {
            }
          }
        }
      }
      attr {
        key: "dtype"
        value {
          type: DT_INT32
        }
      }
      attr {
        key: "value"
        value {
          tensor {
            dtype: DT_INT32
            tensor_shape {
            }
            int_val: 1
          }
        }
      }
    }
    node_def {
      name: "strided_slice_2/stack"
      op: "Const"
      attr {
        key: "_output_shapes"
        value {
          list {
            shape {
              dim {
                size: 1
              }
            }
          }
        }
      }
      attr {
        key: "dtype"
        value {
          type: DT_INT32
        }
      }
      attr {
        key: "value"
        value {
          tensor {
            dtype: DT_INT32
            tensor_shape {
              dim {
                size: 1
              }
            }
            int_val: 0
          }
        }
      }
    }
    node_def {
      name: "strided_slice_2/stack_1"
      op: "Pack"
      input: "args_3"
      attr {
        key: "N"
        value {
          i: 1
        }
      }
      attr {
        key: "T"
        value {
          type: DT_INT32
        }
      }
      attr {
        key: "_output_shapes"
        value {
          list {
            shape {
              dim {
                size: 1
              }
            }
          }
        }
      }
      attr {
        key: "axis"
        value {
          i: 0
        }
      }
    }
    node_def {
      name: "strided_slice_2/stack_2"
      op: "Pack"
      input: "Const_2:output:0"
      attr {
        key: "N"
        value {
          i: 1
        }
      }
      attr {
        key: "T"
        value {
          type: DT_INT32
        }
      }
      attr {
        key: "_output_shapes"
        value {
          list {
            shape {
              dim {
                size: 1
              }
            }
          }
        }
      }
      attr {
        key: "axis"
        value {
          i: 0
        }
      }
    }
    node_def {
      name: "strided_slice_2"
      op: "StridedSlice"
      input: "args_2"
      input: "strided_slice_2/stack:output:0"
      input: "strided_slice_2/stack_1:output:0"
      input: "strided_slice_2/stack_2:output:0"
      attr {
        key: "Index"
        value {
          type: DT_INT32
        }
      }
      attr {
        key: "T"
        value {
          type: DT_BOOL
        }
      }
      attr {
        key: "_output_shapes"
        value {
          list {
            shape {
              dim {
                size: -1
              }
              dim {
              }
            }
          }
        }
      }
      attr {
        key: "begin_mask"
        value {
          i: 0
        }
      }
      attr {
        key: "ellipsis_mask"
        value {
          i: 0
        }
      }
      attr {
        key: "end_mask"
        value {
          i: 0
        }
      }
      attr {
        key: "new_axis_mask"
        value {
          i: 0
        }
      }
      attr {
        key: "shrink_axis_mask"
        value {
          i: 0
        }
      }
    }
    node_def {
      name: "Identity"
      op: "Identity"
      input: "strided_slice:output:0"
      attr {
        key: "T"
        value {
          type: DT_BOOL
        }
      }
      attr {
        key: "_output_shapes"
        value {
          list {
            shape {
              dim {
                size: -1
              }
              dim {
                size: 90
              }
            }
          }
        }
      }
    }
    node_def {
      name: "Identity_1"
      op: "Identity"
      input: "strided_slice_1:output:0"
      attr {
        key: "T"
        value {
          type: DT_BOOL
        }
      }
      attr {
        key: "_output_shapes"
        value {
          list {
            shape {
              dim {
                size: -1
              }
              dim {
                size: 90
              }
            }
          }
        }
      }
    }
    node_def {
      name: "Identity_2"
      op: "Identity"
      input: "strided_slice_2:output:0"
      attr {
        key: "T"
        value {
          type: DT_BOOL
        }
      }
      attr {
        key: "_output_shapes"
        value {
          list {
            shape {
              dim {
                size: -1
              }
              dim {
              }
            }
          }
        }
      }
    }
    node_def {
      name: "Identity_3"
      op: "Identity"
      input: "args_3"
      attr {
        key: "T"
        value {
          type: DT_INT32
        }
      }
      attr {
        key: "_output_shapes"
        value {
          list {
            shape {
            }
          }
        }
      }
    }
    ret {
      key: "identity"
      value: "Identity:output:0"
    }
    ret {
      key: "identity_1"
      value: "Identity_1:output:0"
    }
    ret {
      key: "identity_2"
      value: "Identity_2:output:0"
    }
    ret {
      key: "identity_3"
      value: "Identity_3:output:0"
    }
    attr {
      key: "_input_shapes"
      value {
        list {
          shape {
            dim {
              size: -1
            }
            dim {
              size: 90
            }
          }
          shape {
            dim {
              size: -1
            }
            dim {
              size: 90
            }
          }
          shape {
            dim {
              size: -1
            }
            dim {
            }
          }
          shape {
          }
        }
      }
    }
    attr {
      key: "_tf_data_function"
      value {
        b: true
      }
    }
    arg_attr {
      value {
        attr {
          key: "_output_shapes"
          value {
            list {
              shape {
                dim {
                  size: -1
                }
                dim {
                  size: 90
                }
              }
            }
          }
        }
        attr {
          key: "_user_specified_name"
          value {
            s: "args_0"
          }
        }
      }
    }
    arg_attr {
      key: 1
      value {
        attr {
          key: "_output_shapes"
          value {
            list {
              shape {
                dim {
                  size: -1
                }
                dim {
                  size: 90
                }
              }
            }
          }
        }
        attr {
          key: "_user_specified_name"
          value {
            s: "args_1"
          }
        }
      }
    }
    arg_attr {
      key: 2
      value {
        attr {
          key: "_output_shapes"
          value {
            list {
              shape {
                dim {
                  size: -1
                }
                dim {
                }
              }
            }
          }
        }
        attr {
          key: "_user_specified_name"
          value {
            s: "args_2"
          }
        }
      }
    }
    arg_attr {
      key: 3
      value {
        attr {
          key: "_output_shapes"
          value {
            list {
              shape {
              }
            }
          }
        }
        attr {
          key: "_user_specified_name"
          value {
            s: "args_3"
          }
        }
      }
    }
  }
  function {
    signature {
      name: "__inference_Dataset_flat_map_read_one_file_73"
      input_arg {
        name: "args_0"
        type: DT_STRING
      }
      output_arg {
        name: "identity"
        type: DT_VARIANT
      }
      is_stateful: true
      control_output: "TFRecordDataset"
    }
    node_def {
      name: "compression_type"
      op: "Const"
      attr {
        key: "_output_shapes"
        value {
          list {
            shape {
            }
          }
        }
      }
      attr {
        key: "dtype"
        value {
          type: DT_STRING
        }
      }
      attr {
        key: "value"
        value {
          tensor {
            dtype: DT_STRING
            tensor_shape {
            }
            string_val: ""
          }
        }
      }
    }
    node_def {
      name: "buffer_size"
      op: "Const"
      attr {
        key: "_output_shapes"
        value {
          list {
            shape {
            }
          }
        }
      }
      attr {
        key: "dtype"
        value {
          type: DT_INT64
        }
      }
      attr {
        key: "value"
        value {
          tensor {
            dtype: DT_INT64
            tensor_shape {
            }
            int64_val: 262144
          }
        }
      }
    }
    node_def {
      name: "TFRecordDataset"
      op: "TFRecordDataset"
      input: "args_0"
      input: "compression_type:output:0"
      input: "buffer_size:output:0"
      attr {
        key: "_output_shapes"
        value {
          list {
            shape {
            }
          }
        }
      }
      attr {
        key: "metadata"
        value {
          s: ""
        }
      }
      experimental_type {
        type_id: TFT_PRODUCT
        args {
          type_id: TFT_DATASET
          args {
            type_id: TFT_TENSOR
            args {
              type_id: TFT_STRING
            }
          }
        }
      }
    }
    node_def {
      name: "Identity"
      op: "Identity"
      input: "TFRecordDataset:handle:0"
      input: "^NoOp"
      attr {
        key: "T"
        value {
          type: DT_VARIANT
        }
      }
      attr {
        key: "_output_shapes"
        value {
          list {
            shape {
            }
          }
        }
      }
    }
    node_def {
      name: "NoOp"
      op: "NoOp"
      input: "^TFRecordDataset"
      attr {
        key: "_acd_function_control_output"
        value {
          b: true
        }
      }
      attr {
        key: "_output_shapes"
        value {
          list {
          }
        }
      }
    }
    ret {
      key: "identity"
      value: "Identity:output:0"
    }
    attr {
      key: "_input_shapes"
      value {
        list {
          shape {
          }
        }
      }
    }
    attr {
      key: "_tf_data_function"
      value {
        b: true
      }
    }
    control_ret {
      key: "TFRecordDataset"
      value: "TFRecordDataset"
    }
    arg_attr {
      value {
        attr {
          key: "_output_shapes"
          value {
            list {
              shape {
              }
            }
          }
        }
        attr {
          key: "_user_specified_name"
          value {
            s: "args_0"
          }
        }
      }
    }
  }
}
versions {
  producer: 1087
  min_consumer: 12
}
